{
  "storage" : "model.espresso.weights",
  "analyses" : {

  },
  "properties" : {
    "allowSoftmaxApproximation" : "1"
  },
  "format_version" : 200,
  "metadata_in_weights" : [

  ],
  "layers" : [
    {
      "size_of_axes" : 1,
      "bottom" : "mixed2",
      "axes_0" : 0,
      "weights" : {

      },
      "nd_axis" : 0,
      "debug_info" : "mixed2_expand_dims",
      "top" : "mixed2_expand_dims",
      "type" : "expand_dims",
      "name" : "mixed2_expand_dims"
    },
    {
      "size_of_axes" : 1,
      "bottom" : "mixed6",
      "axes_0" : 0,
      "weights" : {

      },
      "nd_axis" : 0,
      "debug_info" : "mixed6_expand_dims",
      "top" : "mixed6_expand_dims",
      "type" : "expand_dims",
      "name" : "mixed6_expand_dims"
    },
    {
      "pad_r" : 0,
      "fused_relu" : 1,
      "fused_tanh" : 0,
      "debug_info" : "scale0_conv0",
      "pad_fill_mode" : 0,
      "pad_b" : 0,
      "pad_l" : 0,
      "top" : "scale0_relu0",
      "K" : 288,
      "blob_biases" : 1,
      "name" : "scale0_conv0",
      "has_batch_norm" : 0,
      "type" : "convolution",
      "n_groups" : 1,
      "pad_t" : 0,
      "has_biases" : 1,
      "C" : 128,
      "bottom" : "mixed2_expand_dims",
      "weights" : {

      },
      "Nx" : 1,
      "pad_mode" : 4,
      "pad_value" : 0,
      "Ny" : 1,
      "n_parallel" : 1,
      "blob_weights_f16" : 3
    },
    {
      "pad_r" : 0,
      "fused_relu" : 1,
      "fused_tanh" : 0,
      "debug_info" : "scale0_conv1",
      "pad_fill_mode" : 0,
      "pad_b" : 0,
      "pad_l" : 0,
      "top" : "scale0_relu1",
      "K" : 128,
      "blob_biases" : 5,
      "name" : "scale0_conv1",
      "has_batch_norm" : 0,
      "type" : "convolution",
      "n_groups" : 1,
      "pad_t" : 0,
      "has_biases" : 1,
      "C" : 128,
      "bottom" : "scale0_relu0",
      "weights" : {

      },
      "Nx" : 3,
      "pad_mode" : 4,
      "pad_value" : 0,
      "Ny" : 3,
      "n_parallel" : 1,
      "blob_weights_f16" : 7
    },
    {
      "pad_r" : 0,
      "fused_relu" : 1,
      "fused_tanh" : 0,
      "debug_info" : "scale1_conv0",
      "pad_fill_mode" : 0,
      "pad_b" : 0,
      "pad_l" : 0,
      "top" : "scale1_relu0",
      "K" : 768,
      "blob_biases" : 9,
      "name" : "scale1_conv0",
      "has_batch_norm" : 0,
      "type" : "convolution",
      "n_groups" : 1,
      "pad_t" : 0,
      "has_biases" : 1,
      "C" : 128,
      "bottom" : "mixed6_expand_dims",
      "weights" : {

      },
      "Nx" : 1,
      "pad_mode" : 4,
      "pad_value" : 0,
      "Ny" : 1,
      "n_parallel" : 1,
      "blob_weights_f16" : 11
    },
    {
      "pad_r" : 0,
      "fused_relu" : 1,
      "fused_tanh" : 0,
      "debug_info" : "scale1_conv1",
      "pad_fill_mode" : 0,
      "pad_b" : 0,
      "pad_l" : 0,
      "top" : "scale1_relu1",
      "K" : 128,
      "blob_biases" : 13,
      "name" : "scale1_conv1",
      "has_batch_norm" : 0,
      "type" : "convolution",
      "n_groups" : 1,
      "pad_t" : 0,
      "has_biases" : 1,
      "C" : 128,
      "bottom" : "scale1_relu0",
      "weights" : {

      },
      "Nx" : 3,
      "pad_mode" : 4,
      "pad_value" : 0,
      "Ny" : 3,
      "n_parallel" : 1,
      "blob_weights_f16" : 15
    },
    {
      "pad_r" : 0,
      "fused_relu" : 1,
      "fused_tanh" : 0,
      "debug_info" : "scale2_conv0",
      "pad_fill_mode" : 0,
      "pad_b" : 0,
      "pad_l" : 0,
      "top" : "scale2_relu0",
      "K" : 128,
      "blob_biases" : 17,
      "stride_x" : 2,
      "name" : "scale2_conv0",
      "has_batch_norm" : 0,
      "type" : "convolution",
      "n_groups" : 1,
      "pad_t" : 0,
      "stride_y" : 2,
      "has_biases" : 1,
      "C" : 128,
      "bottom" : "scale1_relu1",
      "weights" : {

      },
      "Nx" : 3,
      "pad_mode" : 4,
      "pad_value" : 0,
      "Ny" : 3,
      "n_parallel" : 1,
      "blob_weights_f16" : 19
    },
    {
      "pad_r" : 0,
      "fused_relu" : 1,
      "fused_tanh" : 0,
      "debug_info" : "scale2_conv1",
      "pad_fill_mode" : 0,
      "pad_b" : 0,
      "pad_l" : 0,
      "top" : "scale2_relu1",
      "K" : 128,
      "blob_biases" : 21,
      "name" : "scale2_conv1",
      "has_batch_norm" : 0,
      "type" : "convolution",
      "n_groups" : 1,
      "pad_t" : 0,
      "has_biases" : 1,
      "C" : 128,
      "bottom" : "scale2_relu0",
      "weights" : {

      },
      "Nx" : 3,
      "pad_mode" : 4,
      "pad_value" : 0,
      "Ny" : 3,
      "n_parallel" : 1,
      "blob_weights_f16" : 23
    },
    {
      "pad_r" : 0,
      "fused_relu" : 1,
      "fused_tanh" : 0,
      "debug_info" : "scale3_conv0",
      "pad_fill_mode" : 0,
      "pad_b" : 0,
      "pad_l" : 0,
      "top" : "scale3_relu0",
      "K" : 128,
      "blob_biases" : 25,
      "stride_x" : 2,
      "name" : "scale3_conv0",
      "has_batch_norm" : 0,
      "type" : "convolution",
      "n_groups" : 1,
      "pad_t" : 0,
      "stride_y" : 2,
      "has_biases" : 1,
      "C" : 128,
      "bottom" : "scale2_relu1",
      "weights" : {

      },
      "Nx" : 3,
      "pad_mode" : 4,
      "pad_value" : 0,
      "Ny" : 3,
      "n_parallel" : 1,
      "blob_weights_f16" : 27
    },
    {
      "pad_r" : 0,
      "fused_relu" : 1,
      "fused_tanh" : 0,
      "debug_info" : "scale3_conv1",
      "pad_fill_mode" : 0,
      "pad_b" : 0,
      "pad_l" : 0,
      "top" : "scale3_relu1",
      "K" : 128,
      "blob_biases" : 29,
      "name" : "scale3_conv1",
      "has_batch_norm" : 0,
      "type" : "convolution",
      "n_groups" : 1,
      "pad_t" : 0,
      "has_biases" : 1,
      "C" : 128,
      "bottom" : "scale3_relu0",
      "weights" : {

      },
      "Nx" : 3,
      "pad_mode" : 4,
      "pad_value" : 0,
      "Ny" : 3,
      "n_parallel" : 1,
      "blob_weights_f16" : 31
    },
    {
      "pad_r" : 0,
      "fused_relu" : 1,
      "fused_tanh" : 0,
      "debug_info" : "scale4_conv0",
      "pad_fill_mode" : 0,
      "pad_b" : 0,
      "pad_l" : 0,
      "top" : "scale4_relu0",
      "K" : 128,
      "blob_biases" : 33,
      "stride_x" : 2,
      "name" : "scale4_conv0",
      "has_batch_norm" : 0,
      "type" : "convolution",
      "n_groups" : 1,
      "pad_t" : 0,
      "stride_y" : 2,
      "has_biases" : 1,
      "C" : 128,
      "bottom" : "scale3_relu1",
      "weights" : {

      },
      "Nx" : 3,
      "pad_mode" : 4,
      "pad_value" : 0,
      "Ny" : 3,
      "n_parallel" : 1,
      "blob_weights_f16" : 35
    },
    {
      "pad_r" : 0,
      "fused_relu" : 1,
      "fused_tanh" : 0,
      "debug_info" : "scale4_conv1",
      "pad_fill_mode" : 0,
      "pad_b" : 0,
      "pad_l" : 0,
      "top" : "scale4_relu1",
      "K" : 128,
      "blob_biases" : 37,
      "name" : "scale4_conv1",
      "has_batch_norm" : 0,
      "type" : "convolution",
      "n_groups" : 1,
      "pad_t" : 0,
      "has_biases" : 1,
      "C" : 128,
      "bottom" : "scale4_relu0",
      "weights" : {

      },
      "Nx" : 3,
      "pad_mode" : 4,
      "pad_value" : 0,
      "Ny" : 3,
      "n_parallel" : 1,
      "blob_weights_f16" : 39
    },
    {
      "pad_r" : 0,
      "fused_relu" : 1,
      "fused_tanh" : 0,
      "debug_info" : "shared_cls_conv0_scale0",
      "pad_fill_mode" : 0,
      "pad_b" : 0,
      "pad_l" : 0,
      "top" : "shared_cls_scale0_relu",
      "K" : 128,
      "blob_biases" : 41,
      "name" : "shared_cls_conv0_scale0",
      "has_batch_norm" : 0,
      "type" : "convolution",
      "n_groups" : 1,
      "pad_t" : 0,
      "has_biases" : 1,
      "C" : 128,
      "bottom" : "scale0_relu1",
      "weights" : {

      },
      "Nx" : 3,
      "pad_mode" : 4,
      "pad_value" : 0,
      "Ny" : 3,
      "n_parallel" : 1,
      "blob_weights_f16" : 43
    },
    {
      "pad_r" : 0,
      "fused_relu" : 1,
      "fused_tanh" : 0,
      "debug_info" : "shared_loc_conv0_scale0",
      "pad_fill_mode" : 0,
      "pad_b" : 0,
      "pad_l" : 0,
      "top" : "shared_loc_scale0_relu",
      "K" : 128,
      "blob_biases" : 45,
      "name" : "shared_loc_conv0_scale0",
      "has_batch_norm" : 0,
      "type" : "convolution",
      "n_groups" : 1,
      "pad_t" : 0,
      "has_biases" : 1,
      "C" : 128,
      "bottom" : "scale0_relu1",
      "weights" : {

      },
      "Nx" : 3,
      "pad_mode" : 4,
      "pad_value" : 0,
      "Ny" : 3,
      "n_parallel" : 1,
      "blob_weights_f16" : 47
    },
    {
      "pad_r" : 0,
      "fused_relu" : 1,
      "fused_tanh" : 0,
      "debug_info" : "shared_cls_conv0_scale1",
      "pad_fill_mode" : 0,
      "pad_b" : 0,
      "pad_l" : 0,
      "top" : "shared_cls_scale1_relu",
      "K" : 128,
      "blob_biases" : 49,
      "name" : "shared_cls_conv0_scale1",
      "has_batch_norm" : 0,
      "type" : "convolution",
      "n_groups" : 1,
      "pad_t" : 0,
      "has_biases" : 1,
      "C" : 128,
      "bottom" : "scale1_relu1",
      "weights" : {

      },
      "Nx" : 3,
      "pad_mode" : 4,
      "pad_value" : 0,
      "Ny" : 3,
      "n_parallel" : 1,
      "blob_weights_f16" : 51
    },
    {
      "pad_r" : 0,
      "fused_relu" : 1,
      "fused_tanh" : 0,
      "debug_info" : "shared_loc_conv0_scale1",
      "pad_fill_mode" : 0,
      "pad_b" : 0,
      "pad_l" : 0,
      "top" : "shared_loc_scale1_relu",
      "K" : 128,
      "blob_biases" : 53,
      "name" : "shared_loc_conv0_scale1",
      "has_batch_norm" : 0,
      "type" : "convolution",
      "n_groups" : 1,
      "pad_t" : 0,
      "has_biases" : 1,
      "C" : 128,
      "bottom" : "scale1_relu1",
      "weights" : {

      },
      "Nx" : 3,
      "pad_mode" : 4,
      "pad_value" : 0,
      "Ny" : 3,
      "n_parallel" : 1,
      "blob_weights_f16" : 55
    },
    {
      "pad_r" : 0,
      "fused_relu" : 1,
      "fused_tanh" : 0,
      "debug_info" : "shared_cls_conv0_scale2",
      "pad_fill_mode" : 0,
      "pad_b" : 0,
      "pad_l" : 0,
      "top" : "shared_cls_scale2_relu",
      "K" : 128,
      "blob_biases" : 57,
      "name" : "shared_cls_conv0_scale2",
      "has_batch_norm" : 0,
      "type" : "convolution",
      "n_groups" : 1,
      "pad_t" : 0,
      "has_biases" : 1,
      "C" : 128,
      "bottom" : "scale2_relu1",
      "weights" : {

      },
      "Nx" : 3,
      "pad_mode" : 4,
      "pad_value" : 0,
      "Ny" : 3,
      "n_parallel" : 1,
      "blob_weights_f16" : 59
    },
    {
      "pad_r" : 0,
      "fused_relu" : 1,
      "fused_tanh" : 0,
      "debug_info" : "shared_loc_conv0_scale2",
      "pad_fill_mode" : 0,
      "pad_b" : 0,
      "pad_l" : 0,
      "top" : "shared_loc_scale2_relu",
      "K" : 128,
      "blob_biases" : 61,
      "name" : "shared_loc_conv0_scale2",
      "has_batch_norm" : 0,
      "type" : "convolution",
      "n_groups" : 1,
      "pad_t" : 0,
      "has_biases" : 1,
      "C" : 128,
      "bottom" : "scale2_relu1",
      "weights" : {

      },
      "Nx" : 3,
      "pad_mode" : 4,
      "pad_value" : 0,
      "Ny" : 3,
      "n_parallel" : 1,
      "blob_weights_f16" : 63
    },
    {
      "pad_r" : 0,
      "fused_relu" : 1,
      "fused_tanh" : 0,
      "debug_info" : "shared_cls_conv0_scale3",
      "pad_fill_mode" : 0,
      "pad_b" : 0,
      "pad_l" : 0,
      "top" : "shared_cls_scale3_relu",
      "K" : 128,
      "blob_biases" : 65,
      "name" : "shared_cls_conv0_scale3",
      "has_batch_norm" : 0,
      "type" : "convolution",
      "n_groups" : 1,
      "pad_t" : 0,
      "has_biases" : 1,
      "C" : 128,
      "bottom" : "scale3_relu1",
      "weights" : {

      },
      "Nx" : 3,
      "pad_mode" : 4,
      "pad_value" : 0,
      "Ny" : 3,
      "n_parallel" : 1,
      "blob_weights_f16" : 67
    },
    {
      "pad_r" : 0,
      "fused_relu" : 1,
      "fused_tanh" : 0,
      "debug_info" : "shared_loc_conv0_scale3",
      "pad_fill_mode" : 0,
      "pad_b" : 0,
      "pad_l" : 0,
      "top" : "shared_loc_scale3_relu",
      "K" : 128,
      "blob_biases" : 69,
      "name" : "shared_loc_conv0_scale3",
      "has_batch_norm" : 0,
      "type" : "convolution",
      "n_groups" : 1,
      "pad_t" : 0,
      "has_biases" : 1,
      "C" : 128,
      "bottom" : "scale3_relu1",
      "weights" : {

      },
      "Nx" : 3,
      "pad_mode" : 4,
      "pad_value" : 0,
      "Ny" : 3,
      "n_parallel" : 1,
      "blob_weights_f16" : 71
    },
    {
      "pad_r" : 0,
      "fused_relu" : 1,
      "fused_tanh" : 0,
      "debug_info" : "shared_cls_conv0_scale4",
      "pad_fill_mode" : 0,
      "pad_b" : 0,
      "pad_l" : 0,
      "top" : "shared_cls_scale4_relu",
      "K" : 128,
      "blob_biases" : 73,
      "name" : "shared_cls_conv0_scale4",
      "has_batch_norm" : 0,
      "type" : "convolution",
      "n_groups" : 1,
      "pad_t" : 0,
      "has_biases" : 1,
      "C" : 128,
      "bottom" : "scale4_relu1",
      "weights" : {

      },
      "Nx" : 3,
      "pad_mode" : 4,
      "pad_value" : 0,
      "Ny" : 3,
      "n_parallel" : 1,
      "blob_weights_f16" : 75
    },
    {
      "pad_r" : 0,
      "fused_relu" : 1,
      "fused_tanh" : 0,
      "debug_info" : "shared_loc_conv0_scale4",
      "pad_fill_mode" : 0,
      "pad_b" : 0,
      "pad_l" : 0,
      "top" : "shared_loc_scale4_relu",
      "K" : 128,
      "blob_biases" : 77,
      "name" : "shared_loc_conv0_scale4",
      "has_batch_norm" : 0,
      "type" : "convolution",
      "n_groups" : 1,
      "pad_t" : 0,
      "has_biases" : 1,
      "C" : 128,
      "bottom" : "scale4_relu1",
      "weights" : {

      },
      "Nx" : 3,
      "pad_mode" : 4,
      "pad_value" : 0,
      "Ny" : 3,
      "n_parallel" : 1,
      "blob_weights_f16" : 79
    },
    {
      "pad_r" : 0,
      "fused_relu" : 0,
      "fused_tanh" : 0,
      "debug_info" : "shared_loc_conv1_scale0_anchor0",
      "pad_fill_mode" : 0,
      "pad_b" : 0,
      "pad_l" : 0,
      "top" : "shared_loc_conv1_scale0_anchor0",
      "K" : 128,
      "blob_biases" : 81,
      "name" : "shared_loc_conv1_scale0_anchor0",
      "has_batch_norm" : 0,
      "type" : "convolution",
      "n_groups" : 1,
      "pad_t" : 0,
      "has_biases" : 1,
      "C" : 4,
      "bottom" : "shared_loc_scale0_relu",
      "weights" : {

      },
      "Nx" : 3,
      "pad_mode" : 4,
      "pad_value" : 0,
      "Ny" : 3,
      "n_parallel" : 1,
      "blob_weights_f16" : 83
    },
    {
      "pad_r" : 0,
      "fused_relu" : 0,
      "fused_tanh" : 0,
      "debug_info" : "shared_loc_conv1_scale0_anchor1",
      "pad_fill_mode" : 0,
      "pad_b" : 0,
      "pad_l" : 0,
      "top" : "shared_loc_conv1_scale0_anchor1",
      "K" : 128,
      "blob_biases" : 85,
      "name" : "shared_loc_conv1_scale0_anchor1",
      "has_batch_norm" : 0,
      "type" : "convolution",
      "n_groups" : 1,
      "pad_t" : 0,
      "has_biases" : 1,
      "C" : 4,
      "bottom" : "shared_loc_scale0_relu",
      "weights" : {

      },
      "Nx" : 3,
      "pad_mode" : 4,
      "pad_value" : 0,
      "Ny" : 3,
      "n_parallel" : 1,
      "blob_weights_f16" : 87
    },
    {
      "pad_r" : 0,
      "fused_relu" : 0,
      "fused_tanh" : 0,
      "debug_info" : "shared_loc_conv1_scale0_anchor2",
      "pad_fill_mode" : 0,
      "pad_b" : 0,
      "pad_l" : 0,
      "top" : "shared_loc_conv1_scale0_anchor2",
      "K" : 128,
      "blob_biases" : 89,
      "name" : "shared_loc_conv1_scale0_anchor2",
      "has_batch_norm" : 0,
      "type" : "convolution",
      "n_groups" : 1,
      "pad_t" : 0,
      "has_biases" : 1,
      "C" : 4,
      "bottom" : "shared_loc_scale0_relu",
      "weights" : {

      },
      "Nx" : 3,
      "pad_mode" : 4,
      "pad_value" : 0,
      "Ny" : 3,
      "n_parallel" : 1,
      "blob_weights_f16" : 91
    },
    {
      "pad_r" : 0,
      "fused_relu" : 0,
      "fused_tanh" : 0,
      "debug_info" : "shared_loc_conv1_scale0_anchor3",
      "pad_fill_mode" : 0,
      "pad_b" : 0,
      "pad_l" : 0,
      "top" : "shared_loc_conv1_scale0_anchor3",
      "K" : 128,
      "blob_biases" : 93,
      "name" : "shared_loc_conv1_scale0_anchor3",
      "has_batch_norm" : 0,
      "type" : "convolution",
      "n_groups" : 1,
      "pad_t" : 0,
      "has_biases" : 1,
      "C" : 4,
      "bottom" : "shared_loc_scale0_relu",
      "weights" : {

      },
      "Nx" : 3,
      "pad_mode" : 4,
      "pad_value" : 0,
      "Ny" : 3,
      "n_parallel" : 1,
      "blob_weights_f16" : 95
    },
    {
      "pad_r" : 0,
      "fused_relu" : 0,
      "fused_tanh" : 0,
      "debug_info" : "shared_loc_conv1_scale0_anchor4",
      "pad_fill_mode" : 0,
      "pad_b" : 0,
      "pad_l" : 0,
      "top" : "shared_loc_conv1_scale0_anchor4",
      "K" : 128,
      "blob_biases" : 97,
      "name" : "shared_loc_conv1_scale0_anchor4",
      "has_batch_norm" : 0,
      "type" : "convolution",
      "n_groups" : 1,
      "pad_t" : 0,
      "has_biases" : 1,
      "C" : 4,
      "bottom" : "shared_loc_scale0_relu",
      "weights" : {

      },
      "Nx" : 3,
      "pad_mode" : 4,
      "pad_value" : 0,
      "Ny" : 3,
      "n_parallel" : 1,
      "blob_weights_f16" : 99
    },
    {
      "pad_r" : 0,
      "fused_relu" : 0,
      "fused_tanh" : 0,
      "debug_info" : "shared_loc_conv1_scale0_anchor5",
      "pad_fill_mode" : 0,
      "pad_b" : 0,
      "pad_l" : 0,
      "top" : "shared_loc_conv1_scale0_anchor5",
      "K" : 128,
      "blob_biases" : 101,
      "name" : "shared_loc_conv1_scale0_anchor5",
      "has_batch_norm" : 0,
      "type" : "convolution",
      "n_groups" : 1,
      "pad_t" : 0,
      "has_biases" : 1,
      "C" : 4,
      "bottom" : "shared_loc_scale0_relu",
      "weights" : {

      },
      "Nx" : 3,
      "pad_mode" : 4,
      "pad_value" : 0,
      "Ny" : 3,
      "n_parallel" : 1,
      "blob_weights_f16" : 103
    },
    {
      "pad_r" : 0,
      "fused_relu" : 0,
      "fused_tanh" : 0,
      "debug_info" : "shared_loc_conv1_scale0_anchor6",
      "pad_fill_mode" : 0,
      "pad_b" : 0,
      "pad_l" : 0,
      "top" : "shared_loc_conv1_scale0_anchor6",
      "K" : 128,
      "blob_biases" : 105,
      "name" : "shared_loc_conv1_scale0_anchor6",
      "has_batch_norm" : 0,
      "type" : "convolution",
      "n_groups" : 1,
      "pad_t" : 0,
      "has_biases" : 1,
      "C" : 4,
      "bottom" : "shared_loc_scale0_relu",
      "weights" : {

      },
      "Nx" : 3,
      "pad_mode" : 4,
      "pad_value" : 0,
      "Ny" : 3,
      "n_parallel" : 1,
      "blob_weights_f16" : 107
    },
    {
      "pad_r" : 0,
      "fused_relu" : 0,
      "fused_tanh" : 0,
      "debug_info" : "shared_loc_conv1_scale0_anchor7",
      "pad_fill_mode" : 0,
      "pad_b" : 0,
      "pad_l" : 0,
      "top" : "shared_loc_conv1_scale0_anchor7",
      "K" : 128,
      "blob_biases" : 109,
      "name" : "shared_loc_conv1_scale0_anchor7",
      "has_batch_norm" : 0,
      "type" : "convolution",
      "n_groups" : 1,
      "pad_t" : 0,
      "has_biases" : 1,
      "C" : 4,
      "bottom" : "shared_loc_scale0_relu",
      "weights" : {

      },
      "Nx" : 3,
      "pad_mode" : 4,
      "pad_value" : 0,
      "Ny" : 3,
      "n_parallel" : 1,
      "blob_weights_f16" : 111
    },
    {
      "pad_r" : 0,
      "fused_relu" : 0,
      "fused_tanh" : 0,
      "debug_info" : "shared_loc_conv1_scale0_anchor8",
      "pad_fill_mode" : 0,
      "pad_b" : 0,
      "pad_l" : 0,
      "top" : "shared_loc_conv1_scale0_anchor8",
      "K" : 128,
      "blob_biases" : 113,
      "name" : "shared_loc_conv1_scale0_anchor8",
      "has_batch_norm" : 0,
      "type" : "convolution",
      "n_groups" : 1,
      "pad_t" : 0,
      "has_biases" : 1,
      "C" : 4,
      "bottom" : "shared_loc_scale0_relu",
      "weights" : {

      },
      "Nx" : 3,
      "pad_mode" : 4,
      "pad_value" : 0,
      "Ny" : 3,
      "n_parallel" : 1,
      "blob_weights_f16" : 115
    },
    {
      "weights" : {

      },
      "debug_info" : "loc_concat_scale0",
      "top" : "loc_concat_scale0",
      "type" : "concat",
      "name" : "loc_concat_scale0",
      "bottom" : "shared_loc_conv1_scale0_anchor0,shared_loc_conv1_scale0_anchor1,shared_loc_conv1_scale0_anchor2,shared_loc_conv1_scale0_anchor3,shared_loc_conv1_scale0_anchor4,shared_loc_conv1_scale0_anchor5,shared_loc_conv1_scale0_anchor6,shared_loc_conv1_scale0_anchor7,shared_loc_conv1_scale0_anchor8"
    },
    {
      "pad_r" : 0,
      "fused_relu" : 0,
      "fused_tanh" : 0,
      "debug_info" : "shared_loc_conv1_scale1_anchor0",
      "pad_fill_mode" : 0,
      "pad_b" : 0,
      "pad_l" : 0,
      "top" : "shared_loc_conv1_scale1_anchor0",
      "K" : 128,
      "blob_biases" : 117,
      "name" : "shared_loc_conv1_scale1_anchor0",
      "has_batch_norm" : 0,
      "type" : "convolution",
      "n_groups" : 1,
      "pad_t" : 0,
      "has_biases" : 1,
      "C" : 4,
      "bottom" : "shared_loc_scale1_relu",
      "weights" : {

      },
      "Nx" : 3,
      "pad_mode" : 4,
      "pad_value" : 0,
      "Ny" : 3,
      "n_parallel" : 1,
      "blob_weights_f16" : 119
    },
    {
      "pad_r" : 0,
      "fused_relu" : 0,
      "fused_tanh" : 0,
      "debug_info" : "shared_loc_conv1_scale1_anchor1",
      "pad_fill_mode" : 0,
      "pad_b" : 0,
      "pad_l" : 0,
      "top" : "shared_loc_conv1_scale1_anchor1",
      "K" : 128,
      "blob_biases" : 121,
      "name" : "shared_loc_conv1_scale1_anchor1",
      "has_batch_norm" : 0,
      "type" : "convolution",
      "n_groups" : 1,
      "pad_t" : 0,
      "has_biases" : 1,
      "C" : 4,
      "bottom" : "shared_loc_scale1_relu",
      "weights" : {

      },
      "Nx" : 3,
      "pad_mode" : 4,
      "pad_value" : 0,
      "Ny" : 3,
      "n_parallel" : 1,
      "blob_weights_f16" : 123
    },
    {
      "pad_r" : 0,
      "fused_relu" : 0,
      "fused_tanh" : 0,
      "debug_info" : "shared_loc_conv1_scale1_anchor2",
      "pad_fill_mode" : 0,
      "pad_b" : 0,
      "pad_l" : 0,
      "top" : "shared_loc_conv1_scale1_anchor2",
      "K" : 128,
      "blob_biases" : 125,
      "name" : "shared_loc_conv1_scale1_anchor2",
      "has_batch_norm" : 0,
      "type" : "convolution",
      "n_groups" : 1,
      "pad_t" : 0,
      "has_biases" : 1,
      "C" : 4,
      "bottom" : "shared_loc_scale1_relu",
      "weights" : {

      },
      "Nx" : 3,
      "pad_mode" : 4,
      "pad_value" : 0,
      "Ny" : 3,
      "n_parallel" : 1,
      "blob_weights_f16" : 127
    },
    {
      "pad_r" : 0,
      "fused_relu" : 0,
      "fused_tanh" : 0,
      "debug_info" : "shared_loc_conv1_scale1_anchor3",
      "pad_fill_mode" : 0,
      "pad_b" : 0,
      "pad_l" : 0,
      "top" : "shared_loc_conv1_scale1_anchor3",
      "K" : 128,
      "blob_biases" : 129,
      "name" : "shared_loc_conv1_scale1_anchor3",
      "has_batch_norm" : 0,
      "type" : "convolution",
      "n_groups" : 1,
      "pad_t" : 0,
      "has_biases" : 1,
      "C" : 4,
      "bottom" : "shared_loc_scale1_relu",
      "weights" : {

      },
      "Nx" : 3,
      "pad_mode" : 4,
      "pad_value" : 0,
      "Ny" : 3,
      "n_parallel" : 1,
      "blob_weights_f16" : 131
    },
    {
      "pad_r" : 0,
      "fused_relu" : 0,
      "fused_tanh" : 0,
      "debug_info" : "shared_loc_conv1_scale1_anchor4",
      "pad_fill_mode" : 0,
      "pad_b" : 0,
      "pad_l" : 0,
      "top" : "shared_loc_conv1_scale1_anchor4",
      "K" : 128,
      "blob_biases" : 133,
      "name" : "shared_loc_conv1_scale1_anchor4",
      "has_batch_norm" : 0,
      "type" : "convolution",
      "n_groups" : 1,
      "pad_t" : 0,
      "has_biases" : 1,
      "C" : 4,
      "bottom" : "shared_loc_scale1_relu",
      "weights" : {

      },
      "Nx" : 3,
      "pad_mode" : 4,
      "pad_value" : 0,
      "Ny" : 3,
      "n_parallel" : 1,
      "blob_weights_f16" : 135
    },
    {
      "pad_r" : 0,
      "fused_relu" : 0,
      "fused_tanh" : 0,
      "debug_info" : "shared_loc_conv1_scale1_anchor5",
      "pad_fill_mode" : 0,
      "pad_b" : 0,
      "pad_l" : 0,
      "top" : "shared_loc_conv1_scale1_anchor5",
      "K" : 128,
      "blob_biases" : 137,
      "name" : "shared_loc_conv1_scale1_anchor5",
      "has_batch_norm" : 0,
      "type" : "convolution",
      "n_groups" : 1,
      "pad_t" : 0,
      "has_biases" : 1,
      "C" : 4,
      "bottom" : "shared_loc_scale1_relu",
      "weights" : {

      },
      "Nx" : 3,
      "pad_mode" : 4,
      "pad_value" : 0,
      "Ny" : 3,
      "n_parallel" : 1,
      "blob_weights_f16" : 139
    },
    {
      "pad_r" : 0,
      "fused_relu" : 0,
      "fused_tanh" : 0,
      "debug_info" : "shared_loc_conv1_scale1_anchor6",
      "pad_fill_mode" : 0,
      "pad_b" : 0,
      "pad_l" : 0,
      "top" : "shared_loc_conv1_scale1_anchor6",
      "K" : 128,
      "blob_biases" : 141,
      "name" : "shared_loc_conv1_scale1_anchor6",
      "has_batch_norm" : 0,
      "type" : "convolution",
      "n_groups" : 1,
      "pad_t" : 0,
      "has_biases" : 1,
      "C" : 4,
      "bottom" : "shared_loc_scale1_relu",
      "weights" : {

      },
      "Nx" : 3,
      "pad_mode" : 4,
      "pad_value" : 0,
      "Ny" : 3,
      "n_parallel" : 1,
      "blob_weights_f16" : 143
    },
    {
      "pad_r" : 0,
      "fused_relu" : 0,
      "fused_tanh" : 0,
      "debug_info" : "shared_loc_conv1_scale1_anchor7",
      "pad_fill_mode" : 0,
      "pad_b" : 0,
      "pad_l" : 0,
      "top" : "shared_loc_conv1_scale1_anchor7",
      "K" : 128,
      "blob_biases" : 145,
      "name" : "shared_loc_conv1_scale1_anchor7",
      "has_batch_norm" : 0,
      "type" : "convolution",
      "n_groups" : 1,
      "pad_t" : 0,
      "has_biases" : 1,
      "C" : 4,
      "bottom" : "shared_loc_scale1_relu",
      "weights" : {

      },
      "Nx" : 3,
      "pad_mode" : 4,
      "pad_value" : 0,
      "Ny" : 3,
      "n_parallel" : 1,
      "blob_weights_f16" : 147
    },
    {
      "pad_r" : 0,
      "fused_relu" : 0,
      "fused_tanh" : 0,
      "debug_info" : "shared_loc_conv1_scale1_anchor8",
      "pad_fill_mode" : 0,
      "pad_b" : 0,
      "pad_l" : 0,
      "top" : "shared_loc_conv1_scale1_anchor8",
      "K" : 128,
      "blob_biases" : 149,
      "name" : "shared_loc_conv1_scale1_anchor8",
      "has_batch_norm" : 0,
      "type" : "convolution",
      "n_groups" : 1,
      "pad_t" : 0,
      "has_biases" : 1,
      "C" : 4,
      "bottom" : "shared_loc_scale1_relu",
      "weights" : {

      },
      "Nx" : 3,
      "pad_mode" : 4,
      "pad_value" : 0,
      "Ny" : 3,
      "n_parallel" : 1,
      "blob_weights_f16" : 151
    },
    {
      "weights" : {

      },
      "debug_info" : "loc_concat_scale1",
      "top" : "loc_concat_scale1",
      "type" : "concat",
      "name" : "loc_concat_scale1",
      "bottom" : "shared_loc_conv1_scale1_anchor0,shared_loc_conv1_scale1_anchor1,shared_loc_conv1_scale1_anchor2,shared_loc_conv1_scale1_anchor3,shared_loc_conv1_scale1_anchor4,shared_loc_conv1_scale1_anchor5,shared_loc_conv1_scale1_anchor6,shared_loc_conv1_scale1_anchor7,shared_loc_conv1_scale1_anchor8"
    },
    {
      "pad_r" : 0,
      "fused_relu" : 0,
      "fused_tanh" : 0,
      "debug_info" : "shared_loc_conv1_scale2_anchor0",
      "pad_fill_mode" : 0,
      "pad_b" : 0,
      "pad_l" : 0,
      "top" : "shared_loc_conv1_scale2_anchor0",
      "K" : 128,
      "blob_biases" : 153,
      "name" : "shared_loc_conv1_scale2_anchor0",
      "has_batch_norm" : 0,
      "type" : "convolution",
      "n_groups" : 1,
      "pad_t" : 0,
      "has_biases" : 1,
      "C" : 4,
      "bottom" : "shared_loc_scale2_relu",
      "weights" : {

      },
      "Nx" : 3,
      "pad_mode" : 4,
      "pad_value" : 0,
      "Ny" : 3,
      "n_parallel" : 1,
      "blob_weights_f16" : 155
    },
    {
      "pad_r" : 0,
      "fused_relu" : 0,
      "fused_tanh" : 0,
      "debug_info" : "shared_loc_conv1_scale2_anchor1",
      "pad_fill_mode" : 0,
      "pad_b" : 0,
      "pad_l" : 0,
      "top" : "shared_loc_conv1_scale2_anchor1",
      "K" : 128,
      "blob_biases" : 157,
      "name" : "shared_loc_conv1_scale2_anchor1",
      "has_batch_norm" : 0,
      "type" : "convolution",
      "n_groups" : 1,
      "pad_t" : 0,
      "has_biases" : 1,
      "C" : 4,
      "bottom" : "shared_loc_scale2_relu",
      "weights" : {

      },
      "Nx" : 3,
      "pad_mode" : 4,
      "pad_value" : 0,
      "Ny" : 3,
      "n_parallel" : 1,
      "blob_weights_f16" : 159
    },
    {
      "pad_r" : 0,
      "fused_relu" : 0,
      "fused_tanh" : 0,
      "debug_info" : "shared_loc_conv1_scale2_anchor2",
      "pad_fill_mode" : 0,
      "pad_b" : 0,
      "pad_l" : 0,
      "top" : "shared_loc_conv1_scale2_anchor2",
      "K" : 128,
      "blob_biases" : 161,
      "name" : "shared_loc_conv1_scale2_anchor2",
      "has_batch_norm" : 0,
      "type" : "convolution",
      "n_groups" : 1,
      "pad_t" : 0,
      "has_biases" : 1,
      "C" : 4,
      "bottom" : "shared_loc_scale2_relu",
      "weights" : {

      },
      "Nx" : 3,
      "pad_mode" : 4,
      "pad_value" : 0,
      "Ny" : 3,
      "n_parallel" : 1,
      "blob_weights_f16" : 163
    },
    {
      "pad_r" : 0,
      "fused_relu" : 0,
      "fused_tanh" : 0,
      "debug_info" : "shared_loc_conv1_scale2_anchor3",
      "pad_fill_mode" : 0,
      "pad_b" : 0,
      "pad_l" : 0,
      "top" : "shared_loc_conv1_scale2_anchor3",
      "K" : 128,
      "blob_biases" : 165,
      "name" : "shared_loc_conv1_scale2_anchor3",
      "has_batch_norm" : 0,
      "type" : "convolution",
      "n_groups" : 1,
      "pad_t" : 0,
      "has_biases" : 1,
      "C" : 4,
      "bottom" : "shared_loc_scale2_relu",
      "weights" : {

      },
      "Nx" : 3,
      "pad_mode" : 4,
      "pad_value" : 0,
      "Ny" : 3,
      "n_parallel" : 1,
      "blob_weights_f16" : 167
    },
    {
      "pad_r" : 0,
      "fused_relu" : 0,
      "fused_tanh" : 0,
      "debug_info" : "shared_loc_conv1_scale2_anchor4",
      "pad_fill_mode" : 0,
      "pad_b" : 0,
      "pad_l" : 0,
      "top" : "shared_loc_conv1_scale2_anchor4",
      "K" : 128,
      "blob_biases" : 169,
      "name" : "shared_loc_conv1_scale2_anchor4",
      "has_batch_norm" : 0,
      "type" : "convolution",
      "n_groups" : 1,
      "pad_t" : 0,
      "has_biases" : 1,
      "C" : 4,
      "bottom" : "shared_loc_scale2_relu",
      "weights" : {

      },
      "Nx" : 3,
      "pad_mode" : 4,
      "pad_value" : 0,
      "Ny" : 3,
      "n_parallel" : 1,
      "blob_weights_f16" : 171
    },
    {
      "pad_r" : 0,
      "fused_relu" : 0,
      "fused_tanh" : 0,
      "debug_info" : "shared_loc_conv1_scale2_anchor5",
      "pad_fill_mode" : 0,
      "pad_b" : 0,
      "pad_l" : 0,
      "top" : "shared_loc_conv1_scale2_anchor5",
      "K" : 128,
      "blob_biases" : 173,
      "name" : "shared_loc_conv1_scale2_anchor5",
      "has_batch_norm" : 0,
      "type" : "convolution",
      "n_groups" : 1,
      "pad_t" : 0,
      "has_biases" : 1,
      "C" : 4,
      "bottom" : "shared_loc_scale2_relu",
      "weights" : {

      },
      "Nx" : 3,
      "pad_mode" : 4,
      "pad_value" : 0,
      "Ny" : 3,
      "n_parallel" : 1,
      "blob_weights_f16" : 175
    },
    {
      "pad_r" : 0,
      "fused_relu" : 0,
      "fused_tanh" : 0,
      "debug_info" : "shared_loc_conv1_scale2_anchor6",
      "pad_fill_mode" : 0,
      "pad_b" : 0,
      "pad_l" : 0,
      "top" : "shared_loc_conv1_scale2_anchor6",
      "K" : 128,
      "blob_biases" : 177,
      "name" : "shared_loc_conv1_scale2_anchor6",
      "has_batch_norm" : 0,
      "type" : "convolution",
      "n_groups" : 1,
      "pad_t" : 0,
      "has_biases" : 1,
      "C" : 4,
      "bottom" : "shared_loc_scale2_relu",
      "weights" : {

      },
      "Nx" : 3,
      "pad_mode" : 4,
      "pad_value" : 0,
      "Ny" : 3,
      "n_parallel" : 1,
      "blob_weights_f16" : 179
    },
    {
      "pad_r" : 0,
      "fused_relu" : 0,
      "fused_tanh" : 0,
      "debug_info" : "shared_loc_conv1_scale2_anchor7",
      "pad_fill_mode" : 0,
      "pad_b" : 0,
      "pad_l" : 0,
      "top" : "shared_loc_conv1_scale2_anchor7",
      "K" : 128,
      "blob_biases" : 181,
      "name" : "shared_loc_conv1_scale2_anchor7",
      "has_batch_norm" : 0,
      "type" : "convolution",
      "n_groups" : 1,
      "pad_t" : 0,
      "has_biases" : 1,
      "C" : 4,
      "bottom" : "shared_loc_scale2_relu",
      "weights" : {

      },
      "Nx" : 3,
      "pad_mode" : 4,
      "pad_value" : 0,
      "Ny" : 3,
      "n_parallel" : 1,
      "blob_weights_f16" : 183
    },
    {
      "pad_r" : 0,
      "fused_relu" : 0,
      "fused_tanh" : 0,
      "debug_info" : "shared_loc_conv1_scale2_anchor8",
      "pad_fill_mode" : 0,
      "pad_b" : 0,
      "pad_l" : 0,
      "top" : "shared_loc_conv1_scale2_anchor8",
      "K" : 128,
      "blob_biases" : 185,
      "name" : "shared_loc_conv1_scale2_anchor8",
      "has_batch_norm" : 0,
      "type" : "convolution",
      "n_groups" : 1,
      "pad_t" : 0,
      "has_biases" : 1,
      "C" : 4,
      "bottom" : "shared_loc_scale2_relu",
      "weights" : {

      },
      "Nx" : 3,
      "pad_mode" : 4,
      "pad_value" : 0,
      "Ny" : 3,
      "n_parallel" : 1,
      "blob_weights_f16" : 187
    },
    {
      "weights" : {

      },
      "debug_info" : "loc_concat_scale2",
      "top" : "loc_concat_scale2",
      "type" : "concat",
      "name" : "loc_concat_scale2",
      "bottom" : "shared_loc_conv1_scale2_anchor0,shared_loc_conv1_scale2_anchor1,shared_loc_conv1_scale2_anchor2,shared_loc_conv1_scale2_anchor3,shared_loc_conv1_scale2_anchor4,shared_loc_conv1_scale2_anchor5,shared_loc_conv1_scale2_anchor6,shared_loc_conv1_scale2_anchor7,shared_loc_conv1_scale2_anchor8"
    },
    {
      "pad_r" : 0,
      "fused_relu" : 0,
      "fused_tanh" : 0,
      "debug_info" : "shared_loc_conv1_scale3_anchor0",
      "pad_fill_mode" : 0,
      "pad_b" : 0,
      "pad_l" : 0,
      "top" : "shared_loc_conv1_scale3_anchor0",
      "K" : 128,
      "blob_biases" : 189,
      "name" : "shared_loc_conv1_scale3_anchor0",
      "has_batch_norm" : 0,
      "type" : "convolution",
      "n_groups" : 1,
      "pad_t" : 0,
      "has_biases" : 1,
      "C" : 4,
      "bottom" : "shared_loc_scale3_relu",
      "weights" : {

      },
      "Nx" : 3,
      "pad_mode" : 4,
      "pad_value" : 0,
      "Ny" : 3,
      "n_parallel" : 1,
      "blob_weights_f16" : 191
    },
    {
      "pad_r" : 0,
      "fused_relu" : 0,
      "fused_tanh" : 0,
      "debug_info" : "shared_loc_conv1_scale3_anchor1",
      "pad_fill_mode" : 0,
      "pad_b" : 0,
      "pad_l" : 0,
      "top" : "shared_loc_conv1_scale3_anchor1",
      "K" : 128,
      "blob_biases" : 193,
      "name" : "shared_loc_conv1_scale3_anchor1",
      "has_batch_norm" : 0,
      "type" : "convolution",
      "n_groups" : 1,
      "pad_t" : 0,
      "has_biases" : 1,
      "C" : 4,
      "bottom" : "shared_loc_scale3_relu",
      "weights" : {

      },
      "Nx" : 3,
      "pad_mode" : 4,
      "pad_value" : 0,
      "Ny" : 3,
      "n_parallel" : 1,
      "blob_weights_f16" : 195
    },
    {
      "pad_r" : 0,
      "fused_relu" : 0,
      "fused_tanh" : 0,
      "debug_info" : "shared_loc_conv1_scale3_anchor2",
      "pad_fill_mode" : 0,
      "pad_b" : 0,
      "pad_l" : 0,
      "top" : "shared_loc_conv1_scale3_anchor2",
      "K" : 128,
      "blob_biases" : 197,
      "name" : "shared_loc_conv1_scale3_anchor2",
      "has_batch_norm" : 0,
      "type" : "convolution",
      "n_groups" : 1,
      "pad_t" : 0,
      "has_biases" : 1,
      "C" : 4,
      "bottom" : "shared_loc_scale3_relu",
      "weights" : {

      },
      "Nx" : 3,
      "pad_mode" : 4,
      "pad_value" : 0,
      "Ny" : 3,
      "n_parallel" : 1,
      "blob_weights_f16" : 199
    },
    {
      "pad_r" : 0,
      "fused_relu" : 0,
      "fused_tanh" : 0,
      "debug_info" : "shared_loc_conv1_scale3_anchor3",
      "pad_fill_mode" : 0,
      "pad_b" : 0,
      "pad_l" : 0,
      "top" : "shared_loc_conv1_scale3_anchor3",
      "K" : 128,
      "blob_biases" : 201,
      "name" : "shared_loc_conv1_scale3_anchor3",
      "has_batch_norm" : 0,
      "type" : "convolution",
      "n_groups" : 1,
      "pad_t" : 0,
      "has_biases" : 1,
      "C" : 4,
      "bottom" : "shared_loc_scale3_relu",
      "weights" : {

      },
      "Nx" : 3,
      "pad_mode" : 4,
      "pad_value" : 0,
      "Ny" : 3,
      "n_parallel" : 1,
      "blob_weights_f16" : 203
    },
    {
      "pad_r" : 0,
      "fused_relu" : 0,
      "fused_tanh" : 0,
      "debug_info" : "shared_loc_conv1_scale3_anchor4",
      "pad_fill_mode" : 0,
      "pad_b" : 0,
      "pad_l" : 0,
      "top" : "shared_loc_conv1_scale3_anchor4",
      "K" : 128,
      "blob_biases" : 205,
      "name" : "shared_loc_conv1_scale3_anchor4",
      "has_batch_norm" : 0,
      "type" : "convolution",
      "n_groups" : 1,
      "pad_t" : 0,
      "has_biases" : 1,
      "C" : 4,
      "bottom" : "shared_loc_scale3_relu",
      "weights" : {

      },
      "Nx" : 3,
      "pad_mode" : 4,
      "pad_value" : 0,
      "Ny" : 3,
      "n_parallel" : 1,
      "blob_weights_f16" : 207
    },
    {
      "pad_r" : 0,
      "fused_relu" : 0,
      "fused_tanh" : 0,
      "debug_info" : "shared_loc_conv1_scale3_anchor5",
      "pad_fill_mode" : 0,
      "pad_b" : 0,
      "pad_l" : 0,
      "top" : "shared_loc_conv1_scale3_anchor5",
      "K" : 128,
      "blob_biases" : 209,
      "name" : "shared_loc_conv1_scale3_anchor5",
      "has_batch_norm" : 0,
      "type" : "convolution",
      "n_groups" : 1,
      "pad_t" : 0,
      "has_biases" : 1,
      "C" : 4,
      "bottom" : "shared_loc_scale3_relu",
      "weights" : {

      },
      "Nx" : 3,
      "pad_mode" : 4,
      "pad_value" : 0,
      "Ny" : 3,
      "n_parallel" : 1,
      "blob_weights_f16" : 211
    },
    {
      "pad_r" : 0,
      "fused_relu" : 0,
      "fused_tanh" : 0,
      "debug_info" : "shared_loc_conv1_scale3_anchor6",
      "pad_fill_mode" : 0,
      "pad_b" : 0,
      "pad_l" : 0,
      "top" : "shared_loc_conv1_scale3_anchor6",
      "K" : 128,
      "blob_biases" : 213,
      "name" : "shared_loc_conv1_scale3_anchor6",
      "has_batch_norm" : 0,
      "type" : "convolution",
      "n_groups" : 1,
      "pad_t" : 0,
      "has_biases" : 1,
      "C" : 4,
      "bottom" : "shared_loc_scale3_relu",
      "weights" : {

      },
      "Nx" : 3,
      "pad_mode" : 4,
      "pad_value" : 0,
      "Ny" : 3,
      "n_parallel" : 1,
      "blob_weights_f16" : 215
    },
    {
      "pad_r" : 0,
      "fused_relu" : 0,
      "fused_tanh" : 0,
      "debug_info" : "shared_loc_conv1_scale3_anchor7",
      "pad_fill_mode" : 0,
      "pad_b" : 0,
      "pad_l" : 0,
      "top" : "shared_loc_conv1_scale3_anchor7",
      "K" : 128,
      "blob_biases" : 217,
      "name" : "shared_loc_conv1_scale3_anchor7",
      "has_batch_norm" : 0,
      "type" : "convolution",
      "n_groups" : 1,
      "pad_t" : 0,
      "has_biases" : 1,
      "C" : 4,
      "bottom" : "shared_loc_scale3_relu",
      "weights" : {

      },
      "Nx" : 3,
      "pad_mode" : 4,
      "pad_value" : 0,
      "Ny" : 3,
      "n_parallel" : 1,
      "blob_weights_f16" : 219
    },
    {
      "pad_r" : 0,
      "fused_relu" : 0,
      "fused_tanh" : 0,
      "debug_info" : "shared_loc_conv1_scale3_anchor8",
      "pad_fill_mode" : 0,
      "pad_b" : 0,
      "pad_l" : 0,
      "top" : "shared_loc_conv1_scale3_anchor8",
      "K" : 128,
      "blob_biases" : 221,
      "name" : "shared_loc_conv1_scale3_anchor8",
      "has_batch_norm" : 0,
      "type" : "convolution",
      "n_groups" : 1,
      "pad_t" : 0,
      "has_biases" : 1,
      "C" : 4,
      "bottom" : "shared_loc_scale3_relu",
      "weights" : {

      },
      "Nx" : 3,
      "pad_mode" : 4,
      "pad_value" : 0,
      "Ny" : 3,
      "n_parallel" : 1,
      "blob_weights_f16" : 223
    },
    {
      "weights" : {

      },
      "debug_info" : "loc_concat_scale3",
      "top" : "loc_concat_scale3",
      "type" : "concat",
      "name" : "loc_concat_scale3",
      "bottom" : "shared_loc_conv1_scale3_anchor0,shared_loc_conv1_scale3_anchor1,shared_loc_conv1_scale3_anchor2,shared_loc_conv1_scale3_anchor3,shared_loc_conv1_scale3_anchor4,shared_loc_conv1_scale3_anchor5,shared_loc_conv1_scale3_anchor6,shared_loc_conv1_scale3_anchor7,shared_loc_conv1_scale3_anchor8"
    },
    {
      "pad_r" : 0,
      "fused_relu" : 0,
      "fused_tanh" : 0,
      "debug_info" : "shared_loc_conv1_scale4_anchor0",
      "pad_fill_mode" : 0,
      "pad_b" : 0,
      "pad_l" : 0,
      "top" : "shared_loc_conv1_scale4_anchor0",
      "K" : 128,
      "blob_biases" : 225,
      "name" : "shared_loc_conv1_scale4_anchor0",
      "has_batch_norm" : 0,
      "type" : "convolution",
      "n_groups" : 1,
      "pad_t" : 0,
      "has_biases" : 1,
      "C" : 4,
      "bottom" : "shared_loc_scale4_relu",
      "weights" : {

      },
      "Nx" : 3,
      "pad_mode" : 4,
      "pad_value" : 0,
      "Ny" : 3,
      "n_parallel" : 1,
      "blob_weights_f16" : 227
    },
    {
      "pad_r" : 0,
      "fused_relu" : 0,
      "fused_tanh" : 0,
      "debug_info" : "shared_loc_conv1_scale4_anchor1",
      "pad_fill_mode" : 0,
      "pad_b" : 0,
      "pad_l" : 0,
      "top" : "shared_loc_conv1_scale4_anchor1",
      "K" : 128,
      "blob_biases" : 229,
      "name" : "shared_loc_conv1_scale4_anchor1",
      "has_batch_norm" : 0,
      "type" : "convolution",
      "n_groups" : 1,
      "pad_t" : 0,
      "has_biases" : 1,
      "C" : 4,
      "bottom" : "shared_loc_scale4_relu",
      "weights" : {

      },
      "Nx" : 3,
      "pad_mode" : 4,
      "pad_value" : 0,
      "Ny" : 3,
      "n_parallel" : 1,
      "blob_weights_f16" : 231
    },
    {
      "pad_r" : 0,
      "fused_relu" : 0,
      "fused_tanh" : 0,
      "debug_info" : "shared_loc_conv1_scale4_anchor2",
      "pad_fill_mode" : 0,
      "pad_b" : 0,
      "pad_l" : 0,
      "top" : "shared_loc_conv1_scale4_anchor2",
      "K" : 128,
      "blob_biases" : 233,
      "name" : "shared_loc_conv1_scale4_anchor2",
      "has_batch_norm" : 0,
      "type" : "convolution",
      "n_groups" : 1,
      "pad_t" : 0,
      "has_biases" : 1,
      "C" : 4,
      "bottom" : "shared_loc_scale4_relu",
      "weights" : {

      },
      "Nx" : 3,
      "pad_mode" : 4,
      "pad_value" : 0,
      "Ny" : 3,
      "n_parallel" : 1,
      "blob_weights_f16" : 235
    },
    {
      "pad_r" : 0,
      "fused_relu" : 0,
      "fused_tanh" : 0,
      "debug_info" : "shared_loc_conv1_scale4_anchor3",
      "pad_fill_mode" : 0,
      "pad_b" : 0,
      "pad_l" : 0,
      "top" : "shared_loc_conv1_scale4_anchor3",
      "K" : 128,
      "blob_biases" : 237,
      "name" : "shared_loc_conv1_scale4_anchor3",
      "has_batch_norm" : 0,
      "type" : "convolution",
      "n_groups" : 1,
      "pad_t" : 0,
      "has_biases" : 1,
      "C" : 4,
      "bottom" : "shared_loc_scale4_relu",
      "weights" : {

      },
      "Nx" : 3,
      "pad_mode" : 4,
      "pad_value" : 0,
      "Ny" : 3,
      "n_parallel" : 1,
      "blob_weights_f16" : 239
    },
    {
      "pad_r" : 0,
      "fused_relu" : 0,
      "fused_tanh" : 0,
      "debug_info" : "shared_loc_conv1_scale4_anchor4",
      "pad_fill_mode" : 0,
      "pad_b" : 0,
      "pad_l" : 0,
      "top" : "shared_loc_conv1_scale4_anchor4",
      "K" : 128,
      "blob_biases" : 241,
      "name" : "shared_loc_conv1_scale4_anchor4",
      "has_batch_norm" : 0,
      "type" : "convolution",
      "n_groups" : 1,
      "pad_t" : 0,
      "has_biases" : 1,
      "C" : 4,
      "bottom" : "shared_loc_scale4_relu",
      "weights" : {

      },
      "Nx" : 3,
      "pad_mode" : 4,
      "pad_value" : 0,
      "Ny" : 3,
      "n_parallel" : 1,
      "blob_weights_f16" : 243
    },
    {
      "pad_r" : 0,
      "fused_relu" : 0,
      "fused_tanh" : 0,
      "debug_info" : "shared_loc_conv1_scale4_anchor5",
      "pad_fill_mode" : 0,
      "pad_b" : 0,
      "pad_l" : 0,
      "top" : "shared_loc_conv1_scale4_anchor5",
      "K" : 128,
      "blob_biases" : 245,
      "name" : "shared_loc_conv1_scale4_anchor5",
      "has_batch_norm" : 0,
      "type" : "convolution",
      "n_groups" : 1,
      "pad_t" : 0,
      "has_biases" : 1,
      "C" : 4,
      "bottom" : "shared_loc_scale4_relu",
      "weights" : {

      },
      "Nx" : 3,
      "pad_mode" : 4,
      "pad_value" : 0,
      "Ny" : 3,
      "n_parallel" : 1,
      "blob_weights_f16" : 247
    },
    {
      "pad_r" : 0,
      "fused_relu" : 0,
      "fused_tanh" : 0,
      "debug_info" : "shared_loc_conv1_scale4_anchor6",
      "pad_fill_mode" : 0,
      "pad_b" : 0,
      "pad_l" : 0,
      "top" : "shared_loc_conv1_scale4_anchor6",
      "K" : 128,
      "blob_biases" : 249,
      "name" : "shared_loc_conv1_scale4_anchor6",
      "has_batch_norm" : 0,
      "type" : "convolution",
      "n_groups" : 1,
      "pad_t" : 0,
      "has_biases" : 1,
      "C" : 4,
      "bottom" : "shared_loc_scale4_relu",
      "weights" : {

      },
      "Nx" : 3,
      "pad_mode" : 4,
      "pad_value" : 0,
      "Ny" : 3,
      "n_parallel" : 1,
      "blob_weights_f16" : 251
    },
    {
      "pad_r" : 0,
      "fused_relu" : 0,
      "fused_tanh" : 0,
      "debug_info" : "shared_loc_conv1_scale4_anchor7",
      "pad_fill_mode" : 0,
      "pad_b" : 0,
      "pad_l" : 0,
      "top" : "shared_loc_conv1_scale4_anchor7",
      "K" : 128,
      "blob_biases" : 253,
      "name" : "shared_loc_conv1_scale4_anchor7",
      "has_batch_norm" : 0,
      "type" : "convolution",
      "n_groups" : 1,
      "pad_t" : 0,
      "has_biases" : 1,
      "C" : 4,
      "bottom" : "shared_loc_scale4_relu",
      "weights" : {

      },
      "Nx" : 3,
      "pad_mode" : 4,
      "pad_value" : 0,
      "Ny" : 3,
      "n_parallel" : 1,
      "blob_weights_f16" : 255
    },
    {
      "pad_r" : 0,
      "fused_relu" : 0,
      "fused_tanh" : 0,
      "debug_info" : "shared_loc_conv1_scale4_anchor8",
      "pad_fill_mode" : 0,
      "pad_b" : 0,
      "pad_l" : 0,
      "top" : "shared_loc_conv1_scale4_anchor8",
      "K" : 128,
      "blob_biases" : 257,
      "name" : "shared_loc_conv1_scale4_anchor8",
      "has_batch_norm" : 0,
      "type" : "convolution",
      "n_groups" : 1,
      "pad_t" : 0,
      "has_biases" : 1,
      "C" : 4,
      "bottom" : "shared_loc_scale4_relu",
      "weights" : {

      },
      "Nx" : 3,
      "pad_mode" : 4,
      "pad_value" : 0,
      "Ny" : 3,
      "n_parallel" : 1,
      "blob_weights_f16" : 259
    },
    {
      "weights" : {

      },
      "debug_info" : "loc_concat_scale4",
      "top" : "loc_concat_scale4",
      "type" : "concat",
      "name" : "loc_concat_scale4",
      "bottom" : "shared_loc_conv1_scale4_anchor0,shared_loc_conv1_scale4_anchor1,shared_loc_conv1_scale4_anchor2,shared_loc_conv1_scale4_anchor3,shared_loc_conv1_scale4_anchor4,shared_loc_conv1_scale4_anchor5,shared_loc_conv1_scale4_anchor6,shared_loc_conv1_scale4_anchor7,shared_loc_conv1_scale4_anchor8"
    },
    {
      "pad_r" : 0,
      "fused_relu" : 0,
      "fused_tanh" : 0,
      "debug_info" : "shared_cls_conv1_scale0_anchor0",
      "pad_fill_mode" : 0,
      "pad_b" : 0,
      "pad_l" : 0,
      "top" : "shared_cls_conv1_scale0_anchor0",
      "K" : 128,
      "blob_biases" : 261,
      "name" : "shared_cls_conv1_scale0_anchor0",
      "has_batch_norm" : 0,
      "type" : "convolution",
      "n_groups" : 1,
      "pad_t" : 0,
      "has_biases" : 1,
      "C" : 8,
      "bottom" : "shared_cls_scale0_relu",
      "weights" : {

      },
      "Nx" : 3,
      "pad_mode" : 4,
      "pad_value" : 0,
      "Ny" : 3,
      "n_parallel" : 1,
      "blob_weights_f16" : 263
    },
    {
      "bottom" : "shared_cls_conv1_scale0_anchor0",
      "weights" : {

      },
      "debug_info" : "Probability_scale0_anchor0",
      "top" : "Probability_scale0_anchor0",
      "C" : 2,
      "type" : "softmax",
      "name" : "Probability_scale0_anchor0"
    },
    {
      "pad_r" : 0,
      "fused_relu" : 0,
      "fused_tanh" : 0,
      "debug_info" : "shared_cls_conv1_scale0_anchor1",
      "pad_fill_mode" : 0,
      "pad_b" : 0,
      "pad_l" : 0,
      "top" : "shared_cls_conv1_scale0_anchor1",
      "K" : 128,
      "blob_biases" : 265,
      "name" : "shared_cls_conv1_scale0_anchor1",
      "has_batch_norm" : 0,
      "type" : "convolution",
      "n_groups" : 1,
      "pad_t" : 0,
      "has_biases" : 1,
      "C" : 8,
      "bottom" : "shared_cls_scale0_relu",
      "weights" : {

      },
      "Nx" : 3,
      "pad_mode" : 4,
      "pad_value" : 0,
      "Ny" : 3,
      "n_parallel" : 1,
      "blob_weights_f16" : 267
    },
    {
      "bottom" : "shared_cls_conv1_scale0_anchor1",
      "weights" : {

      },
      "debug_info" : "Probability_scale0_anchor1",
      "top" : "Probability_scale0_anchor1",
      "C" : 2,
      "type" : "softmax",
      "name" : "Probability_scale0_anchor1"
    },
    {
      "pad_r" : 0,
      "fused_relu" : 0,
      "fused_tanh" : 0,
      "debug_info" : "shared_cls_conv1_scale0_anchor2",
      "pad_fill_mode" : 0,
      "pad_b" : 0,
      "pad_l" : 0,
      "top" : "shared_cls_conv1_scale0_anchor2",
      "K" : 128,
      "blob_biases" : 269,
      "name" : "shared_cls_conv1_scale0_anchor2",
      "has_batch_norm" : 0,
      "type" : "convolution",
      "n_groups" : 1,
      "pad_t" : 0,
      "has_biases" : 1,
      "C" : 8,
      "bottom" : "shared_cls_scale0_relu",
      "weights" : {

      },
      "Nx" : 3,
      "pad_mode" : 4,
      "pad_value" : 0,
      "Ny" : 3,
      "n_parallel" : 1,
      "blob_weights_f16" : 271
    },
    {
      "bottom" : "shared_cls_conv1_scale0_anchor2",
      "weights" : {

      },
      "debug_info" : "Probability_scale0_anchor2",
      "top" : "Probability_scale0_anchor2",
      "C" : 2,
      "type" : "softmax",
      "name" : "Probability_scale0_anchor2"
    },
    {
      "pad_r" : 0,
      "fused_relu" : 0,
      "fused_tanh" : 0,
      "debug_info" : "shared_cls_conv1_scale0_anchor3",
      "pad_fill_mode" : 0,
      "pad_b" : 0,
      "pad_l" : 0,
      "top" : "shared_cls_conv1_scale0_anchor3",
      "K" : 128,
      "blob_biases" : 273,
      "name" : "shared_cls_conv1_scale0_anchor3",
      "has_batch_norm" : 0,
      "type" : "convolution",
      "n_groups" : 1,
      "pad_t" : 0,
      "has_biases" : 1,
      "C" : 8,
      "bottom" : "shared_cls_scale0_relu",
      "weights" : {

      },
      "Nx" : 3,
      "pad_mode" : 4,
      "pad_value" : 0,
      "Ny" : 3,
      "n_parallel" : 1,
      "blob_weights_f16" : 275
    },
    {
      "bottom" : "shared_cls_conv1_scale0_anchor3",
      "weights" : {

      },
      "debug_info" : "Probability_scale0_anchor3",
      "top" : "Probability_scale0_anchor3",
      "C" : 2,
      "type" : "softmax",
      "name" : "Probability_scale0_anchor3"
    },
    {
      "pad_r" : 0,
      "fused_relu" : 0,
      "fused_tanh" : 0,
      "debug_info" : "shared_cls_conv1_scale0_anchor4",
      "pad_fill_mode" : 0,
      "pad_b" : 0,
      "pad_l" : 0,
      "top" : "shared_cls_conv1_scale0_anchor4",
      "K" : 128,
      "blob_biases" : 277,
      "name" : "shared_cls_conv1_scale0_anchor4",
      "has_batch_norm" : 0,
      "type" : "convolution",
      "n_groups" : 1,
      "pad_t" : 0,
      "has_biases" : 1,
      "C" : 8,
      "bottom" : "shared_cls_scale0_relu",
      "weights" : {

      },
      "Nx" : 3,
      "pad_mode" : 4,
      "pad_value" : 0,
      "Ny" : 3,
      "n_parallel" : 1,
      "blob_weights_f16" : 279
    },
    {
      "bottom" : "shared_cls_conv1_scale0_anchor4",
      "weights" : {

      },
      "debug_info" : "Probability_scale0_anchor4",
      "top" : "Probability_scale0_anchor4",
      "C" : 2,
      "type" : "softmax",
      "name" : "Probability_scale0_anchor4"
    },
    {
      "pad_r" : 0,
      "fused_relu" : 0,
      "fused_tanh" : 0,
      "debug_info" : "shared_cls_conv1_scale0_anchor5",
      "pad_fill_mode" : 0,
      "pad_b" : 0,
      "pad_l" : 0,
      "top" : "shared_cls_conv1_scale0_anchor5",
      "K" : 128,
      "blob_biases" : 281,
      "name" : "shared_cls_conv1_scale0_anchor5",
      "has_batch_norm" : 0,
      "type" : "convolution",
      "n_groups" : 1,
      "pad_t" : 0,
      "has_biases" : 1,
      "C" : 8,
      "bottom" : "shared_cls_scale0_relu",
      "weights" : {

      },
      "Nx" : 3,
      "pad_mode" : 4,
      "pad_value" : 0,
      "Ny" : 3,
      "n_parallel" : 1,
      "blob_weights_f16" : 283
    },
    {
      "bottom" : "shared_cls_conv1_scale0_anchor5",
      "weights" : {

      },
      "debug_info" : "Probability_scale0_anchor5",
      "top" : "Probability_scale0_anchor5",
      "C" : 2,
      "type" : "softmax",
      "name" : "Probability_scale0_anchor5"
    },
    {
      "pad_r" : 0,
      "fused_relu" : 0,
      "fused_tanh" : 0,
      "debug_info" : "shared_cls_conv1_scale0_anchor6",
      "pad_fill_mode" : 0,
      "pad_b" : 0,
      "pad_l" : 0,
      "top" : "shared_cls_conv1_scale0_anchor6",
      "K" : 128,
      "blob_biases" : 285,
      "name" : "shared_cls_conv1_scale0_anchor6",
      "has_batch_norm" : 0,
      "type" : "convolution",
      "n_groups" : 1,
      "pad_t" : 0,
      "has_biases" : 1,
      "C" : 8,
      "bottom" : "shared_cls_scale0_relu",
      "weights" : {

      },
      "Nx" : 3,
      "pad_mode" : 4,
      "pad_value" : 0,
      "Ny" : 3,
      "n_parallel" : 1,
      "blob_weights_f16" : 287
    },
    {
      "bottom" : "shared_cls_conv1_scale0_anchor6",
      "weights" : {

      },
      "debug_info" : "Probability_scale0_anchor6",
      "top" : "Probability_scale0_anchor6",
      "C" : 2,
      "type" : "softmax",
      "name" : "Probability_scale0_anchor6"
    },
    {
      "pad_r" : 0,
      "fused_relu" : 0,
      "fused_tanh" : 0,
      "debug_info" : "shared_cls_conv1_scale0_anchor7",
      "pad_fill_mode" : 0,
      "pad_b" : 0,
      "pad_l" : 0,
      "top" : "shared_cls_conv1_scale0_anchor7",
      "K" : 128,
      "blob_biases" : 289,
      "name" : "shared_cls_conv1_scale0_anchor7",
      "has_batch_norm" : 0,
      "type" : "convolution",
      "n_groups" : 1,
      "pad_t" : 0,
      "has_biases" : 1,
      "C" : 8,
      "bottom" : "shared_cls_scale0_relu",
      "weights" : {

      },
      "Nx" : 3,
      "pad_mode" : 4,
      "pad_value" : 0,
      "Ny" : 3,
      "n_parallel" : 1,
      "blob_weights_f16" : 291
    },
    {
      "bottom" : "shared_cls_conv1_scale0_anchor7",
      "weights" : {

      },
      "debug_info" : "Probability_scale0_anchor7",
      "top" : "Probability_scale0_anchor7",
      "C" : 2,
      "type" : "softmax",
      "name" : "Probability_scale0_anchor7"
    },
    {
      "pad_r" : 0,
      "fused_relu" : 0,
      "fused_tanh" : 0,
      "debug_info" : "shared_cls_conv1_scale0_anchor8",
      "pad_fill_mode" : 0,
      "pad_b" : 0,
      "pad_l" : 0,
      "top" : "shared_cls_conv1_scale0_anchor8",
      "K" : 128,
      "blob_biases" : 293,
      "name" : "shared_cls_conv1_scale0_anchor8",
      "has_batch_norm" : 0,
      "type" : "convolution",
      "n_groups" : 1,
      "pad_t" : 0,
      "has_biases" : 1,
      "C" : 8,
      "bottom" : "shared_cls_scale0_relu",
      "weights" : {

      },
      "Nx" : 3,
      "pad_mode" : 4,
      "pad_value" : 0,
      "Ny" : 3,
      "n_parallel" : 1,
      "blob_weights_f16" : 295
    },
    {
      "bottom" : "shared_cls_conv1_scale0_anchor8",
      "weights" : {

      },
      "debug_info" : "Probability_scale0_anchor8",
      "top" : "Probability_scale0_anchor8",
      "C" : 2,
      "type" : "softmax",
      "name" : "Probability_scale0_anchor8"
    },
    {
      "weights" : {

      },
      "debug_info" : "cls_concat_scale0",
      "top" : "cls_concat_scale0",
      "type" : "concat",
      "name" : "cls_concat_scale0",
      "bottom" : "Probability_scale0_anchor0,Probability_scale0_anchor1,Probability_scale0_anchor2,Probability_scale0_anchor3,Probability_scale0_anchor4,Probability_scale0_anchor5,Probability_scale0_anchor6,Probability_scale0_anchor7,Probability_scale0_anchor8"
    },
    {
      "pad_r" : 0,
      "fused_relu" : 0,
      "fused_tanh" : 0,
      "debug_info" : "shared_cls_conv1_scale1_anchor0",
      "pad_fill_mode" : 0,
      "pad_b" : 0,
      "pad_l" : 0,
      "top" : "shared_cls_conv1_scale1_anchor0",
      "K" : 128,
      "blob_biases" : 297,
      "name" : "shared_cls_conv1_scale1_anchor0",
      "has_batch_norm" : 0,
      "type" : "convolution",
      "n_groups" : 1,
      "pad_t" : 0,
      "has_biases" : 1,
      "C" : 8,
      "bottom" : "shared_cls_scale1_relu",
      "weights" : {

      },
      "Nx" : 3,
      "pad_mode" : 4,
      "pad_value" : 0,
      "Ny" : 3,
      "n_parallel" : 1,
      "blob_weights_f16" : 299
    },
    {
      "bottom" : "shared_cls_conv1_scale1_anchor0",
      "weights" : {

      },
      "debug_info" : "Probability_scale1_anchor0",
      "top" : "Probability_scale1_anchor0",
      "C" : 2,
      "type" : "softmax",
      "name" : "Probability_scale1_anchor0"
    },
    {
      "pad_r" : 0,
      "fused_relu" : 0,
      "fused_tanh" : 0,
      "debug_info" : "shared_cls_conv1_scale1_anchor1",
      "pad_fill_mode" : 0,
      "pad_b" : 0,
      "pad_l" : 0,
      "top" : "shared_cls_conv1_scale1_anchor1",
      "K" : 128,
      "blob_biases" : 301,
      "name" : "shared_cls_conv1_scale1_anchor1",
      "has_batch_norm" : 0,
      "type" : "convolution",
      "n_groups" : 1,
      "pad_t" : 0,
      "has_biases" : 1,
      "C" : 8,
      "bottom" : "shared_cls_scale1_relu",
      "weights" : {

      },
      "Nx" : 3,
      "pad_mode" : 4,
      "pad_value" : 0,
      "Ny" : 3,
      "n_parallel" : 1,
      "blob_weights_f16" : 303
    },
    {
      "bottom" : "shared_cls_conv1_scale1_anchor1",
      "weights" : {

      },
      "debug_info" : "Probability_scale1_anchor1",
      "top" : "Probability_scale1_anchor1",
      "C" : 2,
      "type" : "softmax",
      "name" : "Probability_scale1_anchor1"
    },
    {
      "pad_r" : 0,
      "fused_relu" : 0,
      "fused_tanh" : 0,
      "debug_info" : "shared_cls_conv1_scale1_anchor2",
      "pad_fill_mode" : 0,
      "pad_b" : 0,
      "pad_l" : 0,
      "top" : "shared_cls_conv1_scale1_anchor2",
      "K" : 128,
      "blob_biases" : 305,
      "name" : "shared_cls_conv1_scale1_anchor2",
      "has_batch_norm" : 0,
      "type" : "convolution",
      "n_groups" : 1,
      "pad_t" : 0,
      "has_biases" : 1,
      "C" : 8,
      "bottom" : "shared_cls_scale1_relu",
      "weights" : {

      },
      "Nx" : 3,
      "pad_mode" : 4,
      "pad_value" : 0,
      "Ny" : 3,
      "n_parallel" : 1,
      "blob_weights_f16" : 307
    },
    {
      "bottom" : "shared_cls_conv1_scale1_anchor2",
      "weights" : {

      },
      "debug_info" : "Probability_scale1_anchor2",
      "top" : "Probability_scale1_anchor2",
      "C" : 2,
      "type" : "softmax",
      "name" : "Probability_scale1_anchor2"
    },
    {
      "pad_r" : 0,
      "fused_relu" : 0,
      "fused_tanh" : 0,
      "debug_info" : "shared_cls_conv1_scale1_anchor3",
      "pad_fill_mode" : 0,
      "pad_b" : 0,
      "pad_l" : 0,
      "top" : "shared_cls_conv1_scale1_anchor3",
      "K" : 128,
      "blob_biases" : 309,
      "name" : "shared_cls_conv1_scale1_anchor3",
      "has_batch_norm" : 0,
      "type" : "convolution",
      "n_groups" : 1,
      "pad_t" : 0,
      "has_biases" : 1,
      "C" : 8,
      "bottom" : "shared_cls_scale1_relu",
      "weights" : {

      },
      "Nx" : 3,
      "pad_mode" : 4,
      "pad_value" : 0,
      "Ny" : 3,
      "n_parallel" : 1,
      "blob_weights_f16" : 311
    },
    {
      "bottom" : "shared_cls_conv1_scale1_anchor3",
      "weights" : {

      },
      "debug_info" : "Probability_scale1_anchor3",
      "top" : "Probability_scale1_anchor3",
      "C" : 2,
      "type" : "softmax",
      "name" : "Probability_scale1_anchor3"
    },
    {
      "pad_r" : 0,
      "fused_relu" : 0,
      "fused_tanh" : 0,
      "debug_info" : "shared_cls_conv1_scale1_anchor4",
      "pad_fill_mode" : 0,
      "pad_b" : 0,
      "pad_l" : 0,
      "top" : "shared_cls_conv1_scale1_anchor4",
      "K" : 128,
      "blob_biases" : 313,
      "name" : "shared_cls_conv1_scale1_anchor4",
      "has_batch_norm" : 0,
      "type" : "convolution",
      "n_groups" : 1,
      "pad_t" : 0,
      "has_biases" : 1,
      "C" : 8,
      "bottom" : "shared_cls_scale1_relu",
      "weights" : {

      },
      "Nx" : 3,
      "pad_mode" : 4,
      "pad_value" : 0,
      "Ny" : 3,
      "n_parallel" : 1,
      "blob_weights_f16" : 315
    },
    {
      "bottom" : "shared_cls_conv1_scale1_anchor4",
      "weights" : {

      },
      "debug_info" : "Probability_scale1_anchor4",
      "top" : "Probability_scale1_anchor4",
      "C" : 2,
      "type" : "softmax",
      "name" : "Probability_scale1_anchor4"
    },
    {
      "pad_r" : 0,
      "fused_relu" : 0,
      "fused_tanh" : 0,
      "debug_info" : "shared_cls_conv1_scale1_anchor5",
      "pad_fill_mode" : 0,
      "pad_b" : 0,
      "pad_l" : 0,
      "top" : "shared_cls_conv1_scale1_anchor5",
      "K" : 128,
      "blob_biases" : 317,
      "name" : "shared_cls_conv1_scale1_anchor5",
      "has_batch_norm" : 0,
      "type" : "convolution",
      "n_groups" : 1,
      "pad_t" : 0,
      "has_biases" : 1,
      "C" : 8,
      "bottom" : "shared_cls_scale1_relu",
      "weights" : {

      },
      "Nx" : 3,
      "pad_mode" : 4,
      "pad_value" : 0,
      "Ny" : 3,
      "n_parallel" : 1,
      "blob_weights_f16" : 319
    },
    {
      "bottom" : "shared_cls_conv1_scale1_anchor5",
      "weights" : {

      },
      "debug_info" : "Probability_scale1_anchor5",
      "top" : "Probability_scale1_anchor5",
      "C" : 2,
      "type" : "softmax",
      "name" : "Probability_scale1_anchor5"
    },
    {
      "pad_r" : 0,
      "fused_relu" : 0,
      "fused_tanh" : 0,
      "debug_info" : "shared_cls_conv1_scale1_anchor6",
      "pad_fill_mode" : 0,
      "pad_b" : 0,
      "pad_l" : 0,
      "top" : "shared_cls_conv1_scale1_anchor6",
      "K" : 128,
      "blob_biases" : 321,
      "name" : "shared_cls_conv1_scale1_anchor6",
      "has_batch_norm" : 0,
      "type" : "convolution",
      "n_groups" : 1,
      "pad_t" : 0,
      "has_biases" : 1,
      "C" : 8,
      "bottom" : "shared_cls_scale1_relu",
      "weights" : {

      },
      "Nx" : 3,
      "pad_mode" : 4,
      "pad_value" : 0,
      "Ny" : 3,
      "n_parallel" : 1,
      "blob_weights_f16" : 323
    },
    {
      "bottom" : "shared_cls_conv1_scale1_anchor6",
      "weights" : {

      },
      "debug_info" : "Probability_scale1_anchor6",
      "top" : "Probability_scale1_anchor6",
      "C" : 2,
      "type" : "softmax",
      "name" : "Probability_scale1_anchor6"
    },
    {
      "pad_r" : 0,
      "fused_relu" : 0,
      "fused_tanh" : 0,
      "debug_info" : "shared_cls_conv1_scale1_anchor7",
      "pad_fill_mode" : 0,
      "pad_b" : 0,
      "pad_l" : 0,
      "top" : "shared_cls_conv1_scale1_anchor7",
      "K" : 128,
      "blob_biases" : 325,
      "name" : "shared_cls_conv1_scale1_anchor7",
      "has_batch_norm" : 0,
      "type" : "convolution",
      "n_groups" : 1,
      "pad_t" : 0,
      "has_biases" : 1,
      "C" : 8,
      "bottom" : "shared_cls_scale1_relu",
      "weights" : {

      },
      "Nx" : 3,
      "pad_mode" : 4,
      "pad_value" : 0,
      "Ny" : 3,
      "n_parallel" : 1,
      "blob_weights_f16" : 327
    },
    {
      "bottom" : "shared_cls_conv1_scale1_anchor7",
      "weights" : {

      },
      "debug_info" : "Probability_scale1_anchor7",
      "top" : "Probability_scale1_anchor7",
      "C" : 2,
      "type" : "softmax",
      "name" : "Probability_scale1_anchor7"
    },
    {
      "pad_r" : 0,
      "fused_relu" : 0,
      "fused_tanh" : 0,
      "debug_info" : "shared_cls_conv1_scale1_anchor8",
      "pad_fill_mode" : 0,
      "pad_b" : 0,
      "pad_l" : 0,
      "top" : "shared_cls_conv1_scale1_anchor8",
      "K" : 128,
      "blob_biases" : 329,
      "name" : "shared_cls_conv1_scale1_anchor8",
      "has_batch_norm" : 0,
      "type" : "convolution",
      "n_groups" : 1,
      "pad_t" : 0,
      "has_biases" : 1,
      "C" : 8,
      "bottom" : "shared_cls_scale1_relu",
      "weights" : {

      },
      "Nx" : 3,
      "pad_mode" : 4,
      "pad_value" : 0,
      "Ny" : 3,
      "n_parallel" : 1,
      "blob_weights_f16" : 331
    },
    {
      "bottom" : "shared_cls_conv1_scale1_anchor8",
      "weights" : {

      },
      "debug_info" : "Probability_scale1_anchor8",
      "top" : "Probability_scale1_anchor8",
      "C" : 2,
      "type" : "softmax",
      "name" : "Probability_scale1_anchor8"
    },
    {
      "weights" : {

      },
      "debug_info" : "cls_concat_scale1",
      "top" : "cls_concat_scale1",
      "type" : "concat",
      "name" : "cls_concat_scale1",
      "bottom" : "Probability_scale1_anchor0,Probability_scale1_anchor1,Probability_scale1_anchor2,Probability_scale1_anchor3,Probability_scale1_anchor4,Probability_scale1_anchor5,Probability_scale1_anchor6,Probability_scale1_anchor7,Probability_scale1_anchor8"
    },
    {
      "pad_r" : 0,
      "fused_relu" : 0,
      "fused_tanh" : 0,
      "debug_info" : "shared_cls_conv1_scale2_anchor0",
      "pad_fill_mode" : 0,
      "pad_b" : 0,
      "pad_l" : 0,
      "top" : "shared_cls_conv1_scale2_anchor0",
      "K" : 128,
      "blob_biases" : 333,
      "name" : "shared_cls_conv1_scale2_anchor0",
      "has_batch_norm" : 0,
      "type" : "convolution",
      "n_groups" : 1,
      "pad_t" : 0,
      "has_biases" : 1,
      "C" : 8,
      "bottom" : "shared_cls_scale2_relu",
      "weights" : {

      },
      "Nx" : 3,
      "pad_mode" : 4,
      "pad_value" : 0,
      "Ny" : 3,
      "n_parallel" : 1,
      "blob_weights_f16" : 335
    },
    {
      "bottom" : "shared_cls_conv1_scale2_anchor0",
      "weights" : {

      },
      "debug_info" : "Probability_scale2_anchor0",
      "top" : "Probability_scale2_anchor0",
      "C" : 2,
      "type" : "softmax",
      "name" : "Probability_scale2_anchor0"
    },
    {
      "pad_r" : 0,
      "fused_relu" : 0,
      "fused_tanh" : 0,
      "debug_info" : "shared_cls_conv1_scale2_anchor1",
      "pad_fill_mode" : 0,
      "pad_b" : 0,
      "pad_l" : 0,
      "top" : "shared_cls_conv1_scale2_anchor1",
      "K" : 128,
      "blob_biases" : 337,
      "name" : "shared_cls_conv1_scale2_anchor1",
      "has_batch_norm" : 0,
      "type" : "convolution",
      "n_groups" : 1,
      "pad_t" : 0,
      "has_biases" : 1,
      "C" : 8,
      "bottom" : "shared_cls_scale2_relu",
      "weights" : {

      },
      "Nx" : 3,
      "pad_mode" : 4,
      "pad_value" : 0,
      "Ny" : 3,
      "n_parallel" : 1,
      "blob_weights_f16" : 339
    },
    {
      "bottom" : "shared_cls_conv1_scale2_anchor1",
      "weights" : {

      },
      "debug_info" : "Probability_scale2_anchor1",
      "top" : "Probability_scale2_anchor1",
      "C" : 2,
      "type" : "softmax",
      "name" : "Probability_scale2_anchor1"
    },
    {
      "pad_r" : 0,
      "fused_relu" : 0,
      "fused_tanh" : 0,
      "debug_info" : "shared_cls_conv1_scale2_anchor2",
      "pad_fill_mode" : 0,
      "pad_b" : 0,
      "pad_l" : 0,
      "top" : "shared_cls_conv1_scale2_anchor2",
      "K" : 128,
      "blob_biases" : 341,
      "name" : "shared_cls_conv1_scale2_anchor2",
      "has_batch_norm" : 0,
      "type" : "convolution",
      "n_groups" : 1,
      "pad_t" : 0,
      "has_biases" : 1,
      "C" : 8,
      "bottom" : "shared_cls_scale2_relu",
      "weights" : {

      },
      "Nx" : 3,
      "pad_mode" : 4,
      "pad_value" : 0,
      "Ny" : 3,
      "n_parallel" : 1,
      "blob_weights_f16" : 343
    },
    {
      "bottom" : "shared_cls_conv1_scale2_anchor2",
      "weights" : {

      },
      "debug_info" : "Probability_scale2_anchor2",
      "top" : "Probability_scale2_anchor2",
      "C" : 2,
      "type" : "softmax",
      "name" : "Probability_scale2_anchor2"
    },
    {
      "pad_r" : 0,
      "fused_relu" : 0,
      "fused_tanh" : 0,
      "debug_info" : "shared_cls_conv1_scale2_anchor3",
      "pad_fill_mode" : 0,
      "pad_b" : 0,
      "pad_l" : 0,
      "top" : "shared_cls_conv1_scale2_anchor3",
      "K" : 128,
      "blob_biases" : 345,
      "name" : "shared_cls_conv1_scale2_anchor3",
      "has_batch_norm" : 0,
      "type" : "convolution",
      "n_groups" : 1,
      "pad_t" : 0,
      "has_biases" : 1,
      "C" : 8,
      "bottom" : "shared_cls_scale2_relu",
      "weights" : {

      },
      "Nx" : 3,
      "pad_mode" : 4,
      "pad_value" : 0,
      "Ny" : 3,
      "n_parallel" : 1,
      "blob_weights_f16" : 347
    },
    {
      "bottom" : "shared_cls_conv1_scale2_anchor3",
      "weights" : {

      },
      "debug_info" : "Probability_scale2_anchor3",
      "top" : "Probability_scale2_anchor3",
      "C" : 2,
      "type" : "softmax",
      "name" : "Probability_scale2_anchor3"
    },
    {
      "pad_r" : 0,
      "fused_relu" : 0,
      "fused_tanh" : 0,
      "debug_info" : "shared_cls_conv1_scale2_anchor4",
      "pad_fill_mode" : 0,
      "pad_b" : 0,
      "pad_l" : 0,
      "top" : "shared_cls_conv1_scale2_anchor4",
      "K" : 128,
      "blob_biases" : 349,
      "name" : "shared_cls_conv1_scale2_anchor4",
      "has_batch_norm" : 0,
      "type" : "convolution",
      "n_groups" : 1,
      "pad_t" : 0,
      "has_biases" : 1,
      "C" : 8,
      "bottom" : "shared_cls_scale2_relu",
      "weights" : {

      },
      "Nx" : 3,
      "pad_mode" : 4,
      "pad_value" : 0,
      "Ny" : 3,
      "n_parallel" : 1,
      "blob_weights_f16" : 351
    },
    {
      "bottom" : "shared_cls_conv1_scale2_anchor4",
      "weights" : {

      },
      "debug_info" : "Probability_scale2_anchor4",
      "top" : "Probability_scale2_anchor4",
      "C" : 2,
      "type" : "softmax",
      "name" : "Probability_scale2_anchor4"
    },
    {
      "pad_r" : 0,
      "fused_relu" : 0,
      "fused_tanh" : 0,
      "debug_info" : "shared_cls_conv1_scale2_anchor5",
      "pad_fill_mode" : 0,
      "pad_b" : 0,
      "pad_l" : 0,
      "top" : "shared_cls_conv1_scale2_anchor5",
      "K" : 128,
      "blob_biases" : 353,
      "name" : "shared_cls_conv1_scale2_anchor5",
      "has_batch_norm" : 0,
      "type" : "convolution",
      "n_groups" : 1,
      "pad_t" : 0,
      "has_biases" : 1,
      "C" : 8,
      "bottom" : "shared_cls_scale2_relu",
      "weights" : {

      },
      "Nx" : 3,
      "pad_mode" : 4,
      "pad_value" : 0,
      "Ny" : 3,
      "n_parallel" : 1,
      "blob_weights_f16" : 355
    },
    {
      "bottom" : "shared_cls_conv1_scale2_anchor5",
      "weights" : {

      },
      "debug_info" : "Probability_scale2_anchor5",
      "top" : "Probability_scale2_anchor5",
      "C" : 2,
      "type" : "softmax",
      "name" : "Probability_scale2_anchor5"
    },
    {
      "pad_r" : 0,
      "fused_relu" : 0,
      "fused_tanh" : 0,
      "debug_info" : "shared_cls_conv1_scale2_anchor6",
      "pad_fill_mode" : 0,
      "pad_b" : 0,
      "pad_l" : 0,
      "top" : "shared_cls_conv1_scale2_anchor6",
      "K" : 128,
      "blob_biases" : 357,
      "name" : "shared_cls_conv1_scale2_anchor6",
      "has_batch_norm" : 0,
      "type" : "convolution",
      "n_groups" : 1,
      "pad_t" : 0,
      "has_biases" : 1,
      "C" : 8,
      "bottom" : "shared_cls_scale2_relu",
      "weights" : {

      },
      "Nx" : 3,
      "pad_mode" : 4,
      "pad_value" : 0,
      "Ny" : 3,
      "n_parallel" : 1,
      "blob_weights_f16" : 359
    },
    {
      "bottom" : "shared_cls_conv1_scale2_anchor6",
      "weights" : {

      },
      "debug_info" : "Probability_scale2_anchor6",
      "top" : "Probability_scale2_anchor6",
      "C" : 2,
      "type" : "softmax",
      "name" : "Probability_scale2_anchor6"
    },
    {
      "pad_r" : 0,
      "fused_relu" : 0,
      "fused_tanh" : 0,
      "debug_info" : "shared_cls_conv1_scale2_anchor7",
      "pad_fill_mode" : 0,
      "pad_b" : 0,
      "pad_l" : 0,
      "top" : "shared_cls_conv1_scale2_anchor7",
      "K" : 128,
      "blob_biases" : 361,
      "name" : "shared_cls_conv1_scale2_anchor7",
      "has_batch_norm" : 0,
      "type" : "convolution",
      "n_groups" : 1,
      "pad_t" : 0,
      "has_biases" : 1,
      "C" : 8,
      "bottom" : "shared_cls_scale2_relu",
      "weights" : {

      },
      "Nx" : 3,
      "pad_mode" : 4,
      "pad_value" : 0,
      "Ny" : 3,
      "n_parallel" : 1,
      "blob_weights_f16" : 363
    },
    {
      "bottom" : "shared_cls_conv1_scale2_anchor7",
      "weights" : {

      },
      "debug_info" : "Probability_scale2_anchor7",
      "top" : "Probability_scale2_anchor7",
      "C" : 2,
      "type" : "softmax",
      "name" : "Probability_scale2_anchor7"
    },
    {
      "pad_r" : 0,
      "fused_relu" : 0,
      "fused_tanh" : 0,
      "debug_info" : "shared_cls_conv1_scale2_anchor8",
      "pad_fill_mode" : 0,
      "pad_b" : 0,
      "pad_l" : 0,
      "top" : "shared_cls_conv1_scale2_anchor8",
      "K" : 128,
      "blob_biases" : 365,
      "name" : "shared_cls_conv1_scale2_anchor8",
      "has_batch_norm" : 0,
      "type" : "convolution",
      "n_groups" : 1,
      "pad_t" : 0,
      "has_biases" : 1,
      "C" : 8,
      "bottom" : "shared_cls_scale2_relu",
      "weights" : {

      },
      "Nx" : 3,
      "pad_mode" : 4,
      "pad_value" : 0,
      "Ny" : 3,
      "n_parallel" : 1,
      "blob_weights_f16" : 367
    },
    {
      "bottom" : "shared_cls_conv1_scale2_anchor8",
      "weights" : {

      },
      "debug_info" : "Probability_scale2_anchor8",
      "top" : "Probability_scale2_anchor8",
      "C" : 2,
      "type" : "softmax",
      "name" : "Probability_scale2_anchor8"
    },
    {
      "weights" : {

      },
      "debug_info" : "cls_concat_scale2",
      "top" : "cls_concat_scale2",
      "type" : "concat",
      "name" : "cls_concat_scale2",
      "bottom" : "Probability_scale2_anchor0,Probability_scale2_anchor1,Probability_scale2_anchor2,Probability_scale2_anchor3,Probability_scale2_anchor4,Probability_scale2_anchor5,Probability_scale2_anchor6,Probability_scale2_anchor7,Probability_scale2_anchor8"
    },
    {
      "pad_r" : 0,
      "fused_relu" : 0,
      "fused_tanh" : 0,
      "debug_info" : "shared_cls_conv1_scale3_anchor0",
      "pad_fill_mode" : 0,
      "pad_b" : 0,
      "pad_l" : 0,
      "top" : "shared_cls_conv1_scale3_anchor0",
      "K" : 128,
      "blob_biases" : 369,
      "name" : "shared_cls_conv1_scale3_anchor0",
      "has_batch_norm" : 0,
      "type" : "convolution",
      "n_groups" : 1,
      "pad_t" : 0,
      "has_biases" : 1,
      "C" : 8,
      "bottom" : "shared_cls_scale3_relu",
      "weights" : {

      },
      "Nx" : 3,
      "pad_mode" : 4,
      "pad_value" : 0,
      "Ny" : 3,
      "n_parallel" : 1,
      "blob_weights_f16" : 371
    },
    {
      "bottom" : "shared_cls_conv1_scale3_anchor0",
      "weights" : {

      },
      "debug_info" : "Probability_scale3_anchor0",
      "top" : "Probability_scale3_anchor0",
      "C" : 2,
      "type" : "softmax",
      "name" : "Probability_scale3_anchor0"
    },
    {
      "pad_r" : 0,
      "fused_relu" : 0,
      "fused_tanh" : 0,
      "debug_info" : "shared_cls_conv1_scale3_anchor1",
      "pad_fill_mode" : 0,
      "pad_b" : 0,
      "pad_l" : 0,
      "top" : "shared_cls_conv1_scale3_anchor1",
      "K" : 128,
      "blob_biases" : 373,
      "name" : "shared_cls_conv1_scale3_anchor1",
      "has_batch_norm" : 0,
      "type" : "convolution",
      "n_groups" : 1,
      "pad_t" : 0,
      "has_biases" : 1,
      "C" : 8,
      "bottom" : "shared_cls_scale3_relu",
      "weights" : {

      },
      "Nx" : 3,
      "pad_mode" : 4,
      "pad_value" : 0,
      "Ny" : 3,
      "n_parallel" : 1,
      "blob_weights_f16" : 375
    },
    {
      "bottom" : "shared_cls_conv1_scale3_anchor1",
      "weights" : {

      },
      "debug_info" : "Probability_scale3_anchor1",
      "top" : "Probability_scale3_anchor1",
      "C" : 2,
      "type" : "softmax",
      "name" : "Probability_scale3_anchor1"
    },
    {
      "pad_r" : 0,
      "fused_relu" : 0,
      "fused_tanh" : 0,
      "debug_info" : "shared_cls_conv1_scale3_anchor2",
      "pad_fill_mode" : 0,
      "pad_b" : 0,
      "pad_l" : 0,
      "top" : "shared_cls_conv1_scale3_anchor2",
      "K" : 128,
      "blob_biases" : 377,
      "name" : "shared_cls_conv1_scale3_anchor2",
      "has_batch_norm" : 0,
      "type" : "convolution",
      "n_groups" : 1,
      "pad_t" : 0,
      "has_biases" : 1,
      "C" : 8,
      "bottom" : "shared_cls_scale3_relu",
      "weights" : {

      },
      "Nx" : 3,
      "pad_mode" : 4,
      "pad_value" : 0,
      "Ny" : 3,
      "n_parallel" : 1,
      "blob_weights_f16" : 379
    },
    {
      "bottom" : "shared_cls_conv1_scale3_anchor2",
      "weights" : {

      },
      "debug_info" : "Probability_scale3_anchor2",
      "top" : "Probability_scale3_anchor2",
      "C" : 2,
      "type" : "softmax",
      "name" : "Probability_scale3_anchor2"
    },
    {
      "pad_r" : 0,
      "fused_relu" : 0,
      "fused_tanh" : 0,
      "debug_info" : "shared_cls_conv1_scale3_anchor3",
      "pad_fill_mode" : 0,
      "pad_b" : 0,
      "pad_l" : 0,
      "top" : "shared_cls_conv1_scale3_anchor3",
      "K" : 128,
      "blob_biases" : 381,
      "name" : "shared_cls_conv1_scale3_anchor3",
      "has_batch_norm" : 0,
      "type" : "convolution",
      "n_groups" : 1,
      "pad_t" : 0,
      "has_biases" : 1,
      "C" : 8,
      "bottom" : "shared_cls_scale3_relu",
      "weights" : {

      },
      "Nx" : 3,
      "pad_mode" : 4,
      "pad_value" : 0,
      "Ny" : 3,
      "n_parallel" : 1,
      "blob_weights_f16" : 383
    },
    {
      "bottom" : "shared_cls_conv1_scale3_anchor3",
      "weights" : {

      },
      "debug_info" : "Probability_scale3_anchor3",
      "top" : "Probability_scale3_anchor3",
      "C" : 2,
      "type" : "softmax",
      "name" : "Probability_scale3_anchor3"
    },
    {
      "pad_r" : 0,
      "fused_relu" : 0,
      "fused_tanh" : 0,
      "debug_info" : "shared_cls_conv1_scale3_anchor4",
      "pad_fill_mode" : 0,
      "pad_b" : 0,
      "pad_l" : 0,
      "top" : "shared_cls_conv1_scale3_anchor4",
      "K" : 128,
      "blob_biases" : 385,
      "name" : "shared_cls_conv1_scale3_anchor4",
      "has_batch_norm" : 0,
      "type" : "convolution",
      "n_groups" : 1,
      "pad_t" : 0,
      "has_biases" : 1,
      "C" : 8,
      "bottom" : "shared_cls_scale3_relu",
      "weights" : {

      },
      "Nx" : 3,
      "pad_mode" : 4,
      "pad_value" : 0,
      "Ny" : 3,
      "n_parallel" : 1,
      "blob_weights_f16" : 387
    },
    {
      "bottom" : "shared_cls_conv1_scale3_anchor4",
      "weights" : {

      },
      "debug_info" : "Probability_scale3_anchor4",
      "top" : "Probability_scale3_anchor4",
      "C" : 2,
      "type" : "softmax",
      "name" : "Probability_scale3_anchor4"
    },
    {
      "pad_r" : 0,
      "fused_relu" : 0,
      "fused_tanh" : 0,
      "debug_info" : "shared_cls_conv1_scale3_anchor5",
      "pad_fill_mode" : 0,
      "pad_b" : 0,
      "pad_l" : 0,
      "top" : "shared_cls_conv1_scale3_anchor5",
      "K" : 128,
      "blob_biases" : 389,
      "name" : "shared_cls_conv1_scale3_anchor5",
      "has_batch_norm" : 0,
      "type" : "convolution",
      "n_groups" : 1,
      "pad_t" : 0,
      "has_biases" : 1,
      "C" : 8,
      "bottom" : "shared_cls_scale3_relu",
      "weights" : {

      },
      "Nx" : 3,
      "pad_mode" : 4,
      "pad_value" : 0,
      "Ny" : 3,
      "n_parallel" : 1,
      "blob_weights_f16" : 391
    },
    {
      "bottom" : "shared_cls_conv1_scale3_anchor5",
      "weights" : {

      },
      "debug_info" : "Probability_scale3_anchor5",
      "top" : "Probability_scale3_anchor5",
      "C" : 2,
      "type" : "softmax",
      "name" : "Probability_scale3_anchor5"
    },
    {
      "pad_r" : 0,
      "fused_relu" : 0,
      "fused_tanh" : 0,
      "debug_info" : "shared_cls_conv1_scale3_anchor6",
      "pad_fill_mode" : 0,
      "pad_b" : 0,
      "pad_l" : 0,
      "top" : "shared_cls_conv1_scale3_anchor6",
      "K" : 128,
      "blob_biases" : 393,
      "name" : "shared_cls_conv1_scale3_anchor6",
      "has_batch_norm" : 0,
      "type" : "convolution",
      "n_groups" : 1,
      "pad_t" : 0,
      "has_biases" : 1,
      "C" : 8,
      "bottom" : "shared_cls_scale3_relu",
      "weights" : {

      },
      "Nx" : 3,
      "pad_mode" : 4,
      "pad_value" : 0,
      "Ny" : 3,
      "n_parallel" : 1,
      "blob_weights_f16" : 395
    },
    {
      "bottom" : "shared_cls_conv1_scale3_anchor6",
      "weights" : {

      },
      "debug_info" : "Probability_scale3_anchor6",
      "top" : "Probability_scale3_anchor6",
      "C" : 2,
      "type" : "softmax",
      "name" : "Probability_scale3_anchor6"
    },
    {
      "pad_r" : 0,
      "fused_relu" : 0,
      "fused_tanh" : 0,
      "debug_info" : "shared_cls_conv1_scale3_anchor7",
      "pad_fill_mode" : 0,
      "pad_b" : 0,
      "pad_l" : 0,
      "top" : "shared_cls_conv1_scale3_anchor7",
      "K" : 128,
      "blob_biases" : 397,
      "name" : "shared_cls_conv1_scale3_anchor7",
      "has_batch_norm" : 0,
      "type" : "convolution",
      "n_groups" : 1,
      "pad_t" : 0,
      "has_biases" : 1,
      "C" : 8,
      "bottom" : "shared_cls_scale3_relu",
      "weights" : {

      },
      "Nx" : 3,
      "pad_mode" : 4,
      "pad_value" : 0,
      "Ny" : 3,
      "n_parallel" : 1,
      "blob_weights_f16" : 399
    },
    {
      "bottom" : "shared_cls_conv1_scale3_anchor7",
      "weights" : {

      },
      "debug_info" : "Probability_scale3_anchor7",
      "top" : "Probability_scale3_anchor7",
      "C" : 2,
      "type" : "softmax",
      "name" : "Probability_scale3_anchor7"
    },
    {
      "pad_r" : 0,
      "fused_relu" : 0,
      "fused_tanh" : 0,
      "debug_info" : "shared_cls_conv1_scale3_anchor8",
      "pad_fill_mode" : 0,
      "pad_b" : 0,
      "pad_l" : 0,
      "top" : "shared_cls_conv1_scale3_anchor8",
      "K" : 128,
      "blob_biases" : 401,
      "name" : "shared_cls_conv1_scale3_anchor8",
      "has_batch_norm" : 0,
      "type" : "convolution",
      "n_groups" : 1,
      "pad_t" : 0,
      "has_biases" : 1,
      "C" : 8,
      "bottom" : "shared_cls_scale3_relu",
      "weights" : {

      },
      "Nx" : 3,
      "pad_mode" : 4,
      "pad_value" : 0,
      "Ny" : 3,
      "n_parallel" : 1,
      "blob_weights_f16" : 403
    },
    {
      "bottom" : "shared_cls_conv1_scale3_anchor8",
      "weights" : {

      },
      "debug_info" : "Probability_scale3_anchor8",
      "top" : "Probability_scale3_anchor8",
      "C" : 2,
      "type" : "softmax",
      "name" : "Probability_scale3_anchor8"
    },
    {
      "weights" : {

      },
      "debug_info" : "cls_concat_scale3",
      "top" : "cls_concat_scale3",
      "type" : "concat",
      "name" : "cls_concat_scale3",
      "bottom" : "Probability_scale3_anchor0,Probability_scale3_anchor1,Probability_scale3_anchor2,Probability_scale3_anchor3,Probability_scale3_anchor4,Probability_scale3_anchor5,Probability_scale3_anchor6,Probability_scale3_anchor7,Probability_scale3_anchor8"
    },
    {
      "pad_r" : 0,
      "fused_relu" : 0,
      "fused_tanh" : 0,
      "debug_info" : "shared_cls_conv1_scale4_anchor0",
      "pad_fill_mode" : 0,
      "pad_b" : 0,
      "pad_l" : 0,
      "top" : "shared_cls_conv1_scale4_anchor0",
      "K" : 128,
      "blob_biases" : 405,
      "name" : "shared_cls_conv1_scale4_anchor0",
      "has_batch_norm" : 0,
      "type" : "convolution",
      "n_groups" : 1,
      "pad_t" : 0,
      "has_biases" : 1,
      "C" : 8,
      "bottom" : "shared_cls_scale4_relu",
      "weights" : {

      },
      "Nx" : 3,
      "pad_mode" : 4,
      "pad_value" : 0,
      "Ny" : 3,
      "n_parallel" : 1,
      "blob_weights_f16" : 407
    },
    {
      "bottom" : "shared_cls_conv1_scale4_anchor0",
      "weights" : {

      },
      "debug_info" : "Probability_scale4_anchor0",
      "top" : "Probability_scale4_anchor0",
      "C" : 2,
      "type" : "softmax",
      "name" : "Probability_scale4_anchor0"
    },
    {
      "pad_r" : 0,
      "fused_relu" : 0,
      "fused_tanh" : 0,
      "debug_info" : "shared_cls_conv1_scale4_anchor1",
      "pad_fill_mode" : 0,
      "pad_b" : 0,
      "pad_l" : 0,
      "top" : "shared_cls_conv1_scale4_anchor1",
      "K" : 128,
      "blob_biases" : 409,
      "name" : "shared_cls_conv1_scale4_anchor1",
      "has_batch_norm" : 0,
      "type" : "convolution",
      "n_groups" : 1,
      "pad_t" : 0,
      "has_biases" : 1,
      "C" : 8,
      "bottom" : "shared_cls_scale4_relu",
      "weights" : {

      },
      "Nx" : 3,
      "pad_mode" : 4,
      "pad_value" : 0,
      "Ny" : 3,
      "n_parallel" : 1,
      "blob_weights_f16" : 411
    },
    {
      "bottom" : "shared_cls_conv1_scale4_anchor1",
      "weights" : {

      },
      "debug_info" : "Probability_scale4_anchor1",
      "top" : "Probability_scale4_anchor1",
      "C" : 2,
      "type" : "softmax",
      "name" : "Probability_scale4_anchor1"
    },
    {
      "pad_r" : 0,
      "fused_relu" : 0,
      "fused_tanh" : 0,
      "debug_info" : "shared_cls_conv1_scale4_anchor2",
      "pad_fill_mode" : 0,
      "pad_b" : 0,
      "pad_l" : 0,
      "top" : "shared_cls_conv1_scale4_anchor2",
      "K" : 128,
      "blob_biases" : 413,
      "name" : "shared_cls_conv1_scale4_anchor2",
      "has_batch_norm" : 0,
      "type" : "convolution",
      "n_groups" : 1,
      "pad_t" : 0,
      "has_biases" : 1,
      "C" : 8,
      "bottom" : "shared_cls_scale4_relu",
      "weights" : {

      },
      "Nx" : 3,
      "pad_mode" : 4,
      "pad_value" : 0,
      "Ny" : 3,
      "n_parallel" : 1,
      "blob_weights_f16" : 415
    },
    {
      "bottom" : "shared_cls_conv1_scale4_anchor2",
      "weights" : {

      },
      "debug_info" : "Probability_scale4_anchor2",
      "top" : "Probability_scale4_anchor2",
      "C" : 2,
      "type" : "softmax",
      "name" : "Probability_scale4_anchor2"
    },
    {
      "pad_r" : 0,
      "fused_relu" : 0,
      "fused_tanh" : 0,
      "debug_info" : "shared_cls_conv1_scale4_anchor3",
      "pad_fill_mode" : 0,
      "pad_b" : 0,
      "pad_l" : 0,
      "top" : "shared_cls_conv1_scale4_anchor3",
      "K" : 128,
      "blob_biases" : 417,
      "name" : "shared_cls_conv1_scale4_anchor3",
      "has_batch_norm" : 0,
      "type" : "convolution",
      "n_groups" : 1,
      "pad_t" : 0,
      "has_biases" : 1,
      "C" : 8,
      "bottom" : "shared_cls_scale4_relu",
      "weights" : {

      },
      "Nx" : 3,
      "pad_mode" : 4,
      "pad_value" : 0,
      "Ny" : 3,
      "n_parallel" : 1,
      "blob_weights_f16" : 419
    },
    {
      "bottom" : "shared_cls_conv1_scale4_anchor3",
      "weights" : {

      },
      "debug_info" : "Probability_scale4_anchor3",
      "top" : "Probability_scale4_anchor3",
      "C" : 2,
      "type" : "softmax",
      "name" : "Probability_scale4_anchor3"
    },
    {
      "pad_r" : 0,
      "fused_relu" : 0,
      "fused_tanh" : 0,
      "debug_info" : "shared_cls_conv1_scale4_anchor4",
      "pad_fill_mode" : 0,
      "pad_b" : 0,
      "pad_l" : 0,
      "top" : "shared_cls_conv1_scale4_anchor4",
      "K" : 128,
      "blob_biases" : 421,
      "name" : "shared_cls_conv1_scale4_anchor4",
      "has_batch_norm" : 0,
      "type" : "convolution",
      "n_groups" : 1,
      "pad_t" : 0,
      "has_biases" : 1,
      "C" : 8,
      "bottom" : "shared_cls_scale4_relu",
      "weights" : {

      },
      "Nx" : 3,
      "pad_mode" : 4,
      "pad_value" : 0,
      "Ny" : 3,
      "n_parallel" : 1,
      "blob_weights_f16" : 423
    },
    {
      "bottom" : "shared_cls_conv1_scale4_anchor4",
      "weights" : {

      },
      "debug_info" : "Probability_scale4_anchor4",
      "top" : "Probability_scale4_anchor4",
      "C" : 2,
      "type" : "softmax",
      "name" : "Probability_scale4_anchor4"
    },
    {
      "pad_r" : 0,
      "fused_relu" : 0,
      "fused_tanh" : 0,
      "debug_info" : "shared_cls_conv1_scale4_anchor5",
      "pad_fill_mode" : 0,
      "pad_b" : 0,
      "pad_l" : 0,
      "top" : "shared_cls_conv1_scale4_anchor5",
      "K" : 128,
      "blob_biases" : 425,
      "name" : "shared_cls_conv1_scale4_anchor5",
      "has_batch_norm" : 0,
      "type" : "convolution",
      "n_groups" : 1,
      "pad_t" : 0,
      "has_biases" : 1,
      "C" : 8,
      "bottom" : "shared_cls_scale4_relu",
      "weights" : {

      },
      "Nx" : 3,
      "pad_mode" : 4,
      "pad_value" : 0,
      "Ny" : 3,
      "n_parallel" : 1,
      "blob_weights_f16" : 427
    },
    {
      "bottom" : "shared_cls_conv1_scale4_anchor5",
      "weights" : {

      },
      "debug_info" : "Probability_scale4_anchor5",
      "top" : "Probability_scale4_anchor5",
      "C" : 2,
      "type" : "softmax",
      "name" : "Probability_scale4_anchor5"
    },
    {
      "pad_r" : 0,
      "fused_relu" : 0,
      "fused_tanh" : 0,
      "debug_info" : "shared_cls_conv1_scale4_anchor6",
      "pad_fill_mode" : 0,
      "pad_b" : 0,
      "pad_l" : 0,
      "top" : "shared_cls_conv1_scale4_anchor6",
      "K" : 128,
      "blob_biases" : 429,
      "name" : "shared_cls_conv1_scale4_anchor6",
      "has_batch_norm" : 0,
      "type" : "convolution",
      "n_groups" : 1,
      "pad_t" : 0,
      "has_biases" : 1,
      "C" : 8,
      "bottom" : "shared_cls_scale4_relu",
      "weights" : {

      },
      "Nx" : 3,
      "pad_mode" : 4,
      "pad_value" : 0,
      "Ny" : 3,
      "n_parallel" : 1,
      "blob_weights_f16" : 431
    },
    {
      "bottom" : "shared_cls_conv1_scale4_anchor6",
      "weights" : {

      },
      "debug_info" : "Probability_scale4_anchor6",
      "top" : "Probability_scale4_anchor6",
      "C" : 2,
      "type" : "softmax",
      "name" : "Probability_scale4_anchor6"
    },
    {
      "pad_r" : 0,
      "fused_relu" : 0,
      "fused_tanh" : 0,
      "debug_info" : "shared_cls_conv1_scale4_anchor7",
      "pad_fill_mode" : 0,
      "pad_b" : 0,
      "pad_l" : 0,
      "top" : "shared_cls_conv1_scale4_anchor7",
      "K" : 128,
      "blob_biases" : 433,
      "name" : "shared_cls_conv1_scale4_anchor7",
      "has_batch_norm" : 0,
      "type" : "convolution",
      "n_groups" : 1,
      "pad_t" : 0,
      "has_biases" : 1,
      "C" : 8,
      "bottom" : "shared_cls_scale4_relu",
      "weights" : {

      },
      "Nx" : 3,
      "pad_mode" : 4,
      "pad_value" : 0,
      "Ny" : 3,
      "n_parallel" : 1,
      "blob_weights_f16" : 435
    },
    {
      "bottom" : "shared_cls_conv1_scale4_anchor7",
      "weights" : {

      },
      "debug_info" : "Probability_scale4_anchor7",
      "top" : "Probability_scale4_anchor7",
      "C" : 2,
      "type" : "softmax",
      "name" : "Probability_scale4_anchor7"
    },
    {
      "pad_r" : 0,
      "fused_relu" : 0,
      "fused_tanh" : 0,
      "debug_info" : "shared_cls_conv1_scale4_anchor8",
      "pad_fill_mode" : 0,
      "pad_b" : 0,
      "pad_l" : 0,
      "top" : "shared_cls_conv1_scale4_anchor8",
      "K" : 128,
      "blob_biases" : 437,
      "name" : "shared_cls_conv1_scale4_anchor8",
      "has_batch_norm" : 0,
      "type" : "convolution",
      "n_groups" : 1,
      "pad_t" : 0,
      "has_biases" : 1,
      "C" : 8,
      "bottom" : "shared_cls_scale4_relu",
      "weights" : {

      },
      "Nx" : 3,
      "pad_mode" : 4,
      "pad_value" : 0,
      "Ny" : 3,
      "n_parallel" : 1,
      "blob_weights_f16" : 439
    },
    {
      "bottom" : "shared_cls_conv1_scale4_anchor8",
      "weights" : {

      },
      "debug_info" : "Probability_scale4_anchor8",
      "top" : "Probability_scale4_anchor8",
      "C" : 2,
      "type" : "softmax",
      "name" : "Probability_scale4_anchor8"
    },
    {
      "weights" : {

      },
      "debug_info" : "cls_concat_scale4",
      "top" : "cls_concat_scale4",
      "type" : "concat",
      "name" : "cls_concat_scale4",
      "bottom" : "Probability_scale4_anchor0,Probability_scale4_anchor1,Probability_scale4_anchor2,Probability_scale4_anchor3,Probability_scale4_anchor4,Probability_scale4_anchor5,Probability_scale4_anchor6,Probability_scale4_anchor7,Probability_scale4_anchor8"
    },
    {
      "name" : "cls_reshape0_scale0",
      "weights" : {

      },
      "dst_w" : 1225,
      "version" : 1,
      "dst_n" : 0,
      "type" : "reshape",
      "dst_h" : 8,
      "mode" : 0,
      "bottom" : "cls_concat_scale0",
      "debug_info" : "cls_reshape0_scale0",
      "dst_seq" : 1,
      "dst_k" : 9,
      "top" : "cls_reshape0_scale0"
    },
    {
      "axis_h" : 0,
      "axis_w" : 1,
      "bottom" : "cls_reshape0_scale0",
      "axis_k" : 2,
      "axis_n" : 3,
      "axis_seq" : 4,
      "weights" : {

      },
      "debug_info" : "cls_permute_scale0",
      "top" : "cls_permute_scale0",
      "type" : "transpose",
      "name" : "cls_permute_scale0"
    },
    {
      "name" : "cls_reshape1_scale0",
      "weights" : {

      },
      "dst_w" : 8,
      "version" : 1,
      "dst_n" : 0,
      "type" : "reshape",
      "dst_h" : 1,
      "mode" : 0,
      "bottom" : "cls_permute_scale0",
      "debug_info" : "cls_reshape1_scale0",
      "hint_fallback_from_metal" : 1,
      "dst_seq" : 1,
      "dst_k" : 11025,
      "top" : "cls_reshape1_scale0"
    },
    {
      "name" : "loc_reshape0_scale0",
      "weights" : {

      },
      "dst_w" : 1225,
      "version" : 1,
      "dst_n" : 0,
      "type" : "reshape",
      "dst_h" : 4,
      "mode" : 0,
      "bottom" : "loc_concat_scale0",
      "debug_info" : "loc_reshape0_scale0",
      "dst_seq" : 1,
      "dst_k" : 9,
      "top" : "loc_reshape0_scale0"
    },
    {
      "axis_h" : 0,
      "axis_w" : 1,
      "bottom" : "loc_reshape0_scale0",
      "axis_k" : 2,
      "axis_n" : 3,
      "axis_seq" : 4,
      "weights" : {

      },
      "debug_info" : "loc_permute_scale0",
      "top" : "loc_permute_scale0",
      "type" : "transpose",
      "name" : "loc_permute_scale0"
    },
    {
      "name" : "loc_reshape1_scale0",
      "weights" : {

      },
      "dst_w" : 4,
      "version" : 1,
      "dst_n" : 0,
      "type" : "reshape",
      "dst_h" : 1,
      "mode" : 0,
      "bottom" : "loc_permute_scale0",
      "debug_info" : "loc_reshape1_scale0",
      "hint_fallback_from_metal" : 1,
      "dst_seq" : 1,
      "dst_k" : 11025,
      "top" : "loc_reshape1_scale0"
    },
    {
      "name" : "cls_reshape0_scale1",
      "weights" : {

      },
      "dst_w" : 289,
      "version" : 1,
      "dst_n" : 0,
      "type" : "reshape",
      "dst_h" : 8,
      "mode" : 0,
      "bottom" : "cls_concat_scale1",
      "debug_info" : "cls_reshape0_scale1",
      "dst_seq" : 1,
      "dst_k" : 9,
      "top" : "cls_reshape0_scale1"
    },
    {
      "axis_h" : 0,
      "axis_w" : 1,
      "bottom" : "cls_reshape0_scale1",
      "axis_k" : 2,
      "axis_n" : 3,
      "axis_seq" : 4,
      "weights" : {

      },
      "debug_info" : "cls_permute_scale1",
      "top" : "cls_permute_scale1",
      "type" : "transpose",
      "name" : "cls_permute_scale1"
    },
    {
      "name" : "cls_reshape1_scale1",
      "weights" : {

      },
      "dst_w" : 8,
      "version" : 1,
      "dst_n" : 0,
      "type" : "reshape",
      "dst_h" : 1,
      "mode" : 0,
      "bottom" : "cls_permute_scale1",
      "debug_info" : "cls_reshape1_scale1",
      "dst_seq" : 1,
      "dst_k" : 2601,
      "top" : "cls_reshape1_scale1"
    },
    {
      "name" : "loc_reshape0_scale1",
      "weights" : {

      },
      "dst_w" : 289,
      "version" : 1,
      "dst_n" : 0,
      "type" : "reshape",
      "dst_h" : 4,
      "mode" : 0,
      "bottom" : "loc_concat_scale1",
      "debug_info" : "loc_reshape0_scale1",
      "dst_seq" : 1,
      "dst_k" : 9,
      "top" : "loc_reshape0_scale1"
    },
    {
      "axis_h" : 0,
      "axis_w" : 1,
      "bottom" : "loc_reshape0_scale1",
      "axis_k" : 2,
      "axis_n" : 3,
      "axis_seq" : 4,
      "weights" : {

      },
      "debug_info" : "loc_permute_scale1",
      "top" : "loc_permute_scale1",
      "type" : "transpose",
      "name" : "loc_permute_scale1"
    },
    {
      "name" : "loc_reshape1_scale1",
      "weights" : {

      },
      "dst_w" : 4,
      "version" : 1,
      "dst_n" : 0,
      "type" : "reshape",
      "dst_h" : 1,
      "mode" : 0,
      "bottom" : "loc_permute_scale1",
      "debug_info" : "loc_reshape1_scale1",
      "dst_seq" : 1,
      "dst_k" : 2601,
      "top" : "loc_reshape1_scale1"
    },
    {
      "name" : "cls_reshape0_scale2",
      "weights" : {

      },
      "dst_w" : 81,
      "version" : 1,
      "dst_n" : 0,
      "type" : "reshape",
      "dst_h" : 8,
      "mode" : 0,
      "bottom" : "cls_concat_scale2",
      "debug_info" : "cls_reshape0_scale2",
      "dst_seq" : 1,
      "dst_k" : 9,
      "top" : "cls_reshape0_scale2"
    },
    {
      "axis_h" : 0,
      "axis_w" : 1,
      "bottom" : "cls_reshape0_scale2",
      "axis_k" : 2,
      "axis_n" : 3,
      "axis_seq" : 4,
      "weights" : {

      },
      "debug_info" : "cls_permute_scale2",
      "top" : "cls_permute_scale2",
      "type" : "transpose",
      "name" : "cls_permute_scale2"
    },
    {
      "name" : "cls_reshape1_scale2",
      "weights" : {

      },
      "dst_w" : 8,
      "version" : 1,
      "dst_n" : 0,
      "type" : "reshape",
      "dst_h" : 1,
      "mode" : 0,
      "bottom" : "cls_permute_scale2",
      "debug_info" : "cls_reshape1_scale2",
      "dst_seq" : 1,
      "dst_k" : 729,
      "top" : "cls_reshape1_scale2"
    },
    {
      "name" : "loc_reshape0_scale2",
      "weights" : {

      },
      "dst_w" : 81,
      "version" : 1,
      "dst_n" : 0,
      "type" : "reshape",
      "dst_h" : 4,
      "mode" : 0,
      "bottom" : "loc_concat_scale2",
      "debug_info" : "loc_reshape0_scale2",
      "dst_seq" : 1,
      "dst_k" : 9,
      "top" : "loc_reshape0_scale2"
    },
    {
      "axis_h" : 0,
      "axis_w" : 1,
      "bottom" : "loc_reshape0_scale2",
      "axis_k" : 2,
      "axis_n" : 3,
      "axis_seq" : 4,
      "weights" : {

      },
      "debug_info" : "loc_permute_scale2",
      "top" : "loc_permute_scale2",
      "type" : "transpose",
      "name" : "loc_permute_scale2"
    },
    {
      "name" : "loc_reshape1_scale2",
      "weights" : {

      },
      "dst_w" : 4,
      "version" : 1,
      "dst_n" : 0,
      "type" : "reshape",
      "dst_h" : 1,
      "mode" : 0,
      "bottom" : "loc_permute_scale2",
      "debug_info" : "loc_reshape1_scale2",
      "dst_seq" : 1,
      "dst_k" : 729,
      "top" : "loc_reshape1_scale2"
    },
    {
      "name" : "cls_reshape0_scale3",
      "weights" : {

      },
      "dst_w" : 25,
      "version" : 1,
      "dst_n" : 0,
      "type" : "reshape",
      "dst_h" : 8,
      "mode" : 0,
      "bottom" : "cls_concat_scale3",
      "debug_info" : "cls_reshape0_scale3",
      "dst_seq" : 1,
      "dst_k" : 9,
      "top" : "cls_reshape0_scale3"
    },
    {
      "axis_h" : 0,
      "axis_w" : 1,
      "bottom" : "cls_reshape0_scale3",
      "axis_k" : 2,
      "axis_n" : 3,
      "axis_seq" : 4,
      "weights" : {

      },
      "debug_info" : "cls_permute_scale3",
      "top" : "cls_permute_scale3",
      "type" : "transpose",
      "name" : "cls_permute_scale3"
    },
    {
      "name" : "cls_reshape1_scale3",
      "weights" : {

      },
      "dst_w" : 8,
      "version" : 1,
      "dst_n" : 0,
      "type" : "reshape",
      "dst_h" : 1,
      "mode" : 0,
      "bottom" : "cls_permute_scale3",
      "debug_info" : "cls_reshape1_scale3",
      "dst_seq" : 1,
      "dst_k" : 225,
      "top" : "cls_reshape1_scale3"
    },
    {
      "name" : "loc_reshape0_scale3",
      "weights" : {

      },
      "dst_w" : 25,
      "version" : 1,
      "dst_n" : 0,
      "type" : "reshape",
      "dst_h" : 4,
      "mode" : 0,
      "bottom" : "loc_concat_scale3",
      "debug_info" : "loc_reshape0_scale3",
      "dst_seq" : 1,
      "dst_k" : 9,
      "top" : "loc_reshape0_scale3"
    },
    {
      "axis_h" : 0,
      "axis_w" : 1,
      "bottom" : "loc_reshape0_scale3",
      "axis_k" : 2,
      "axis_n" : 3,
      "axis_seq" : 4,
      "weights" : {

      },
      "debug_info" : "loc_permute_scale3",
      "top" : "loc_permute_scale3",
      "type" : "transpose",
      "name" : "loc_permute_scale3"
    },
    {
      "name" : "loc_reshape1_scale3",
      "weights" : {

      },
      "dst_w" : 4,
      "version" : 1,
      "dst_n" : 0,
      "type" : "reshape",
      "dst_h" : 1,
      "mode" : 0,
      "bottom" : "loc_permute_scale3",
      "debug_info" : "loc_reshape1_scale3",
      "dst_seq" : 1,
      "dst_k" : 225,
      "top" : "loc_reshape1_scale3"
    },
    {
      "name" : "cls_reshape0_scale4",
      "weights" : {

      },
      "dst_w" : 9,
      "version" : 1,
      "dst_n" : 0,
      "type" : "reshape",
      "dst_h" : 8,
      "mode" : 0,
      "bottom" : "cls_concat_scale4",
      "debug_info" : "cls_reshape0_scale4",
      "dst_seq" : 1,
      "dst_k" : 9,
      "top" : "cls_reshape0_scale4"
    },
    {
      "axis_h" : 0,
      "axis_w" : 1,
      "bottom" : "cls_reshape0_scale4",
      "axis_k" : 2,
      "axis_n" : 3,
      "axis_seq" : 4,
      "weights" : {

      },
      "debug_info" : "cls_permute_scale4",
      "top" : "cls_permute_scale4",
      "type" : "transpose",
      "name" : "cls_permute_scale4"
    },
    {
      "name" : "cls_reshape1_scale4",
      "weights" : {

      },
      "dst_w" : 8,
      "version" : 1,
      "dst_n" : 0,
      "type" : "reshape",
      "dst_h" : 1,
      "mode" : 0,
      "bottom" : "cls_permute_scale4",
      "debug_info" : "cls_reshape1_scale4",
      "dst_seq" : 1,
      "dst_k" : 81,
      "top" : "cls_reshape1_scale4"
    },
    {
      "name" : "loc_reshape0_scale4",
      "weights" : {

      },
      "dst_w" : 9,
      "version" : 1,
      "dst_n" : 0,
      "type" : "reshape",
      "dst_h" : 4,
      "mode" : 0,
      "bottom" : "loc_concat_scale4",
      "debug_info" : "loc_reshape0_scale4",
      "dst_seq" : 1,
      "dst_k" : 9,
      "top" : "loc_reshape0_scale4"
    },
    {
      "axis_h" : 0,
      "axis_w" : 1,
      "bottom" : "loc_reshape0_scale4",
      "axis_k" : 2,
      "axis_n" : 3,
      "axis_seq" : 4,
      "weights" : {

      },
      "debug_info" : "loc_permute_scale4",
      "top" : "loc_permute_scale4",
      "type" : "transpose",
      "name" : "loc_permute_scale4"
    },
    {
      "name" : "loc_reshape1_scale4",
      "weights" : {

      },
      "dst_w" : 4,
      "version" : 1,
      "dst_n" : 0,
      "type" : "reshape",
      "dst_h" : 1,
      "mode" : 0,
      "bottom" : "loc_permute_scale4",
      "debug_info" : "loc_reshape1_scale4",
      "dst_seq" : 1,
      "dst_k" : 81,
      "top" : "loc_reshape1_scale4"
    },
    {
      "bottom" : "loc_reshape1_scale0,loc_reshape1_scale1,loc_reshape1_scale2,loc_reshape1_scale3,loc_reshape1_scale4",
      "weights" : {

      },
      "hint_fallback_from_metal" : 1,
      "debug_info" : "loc_concat",
      "top" : "loc_concat",
      "type" : "concat",
      "name" : "loc_concat"
    },
    {
      "axis_seq" : 4,
      "top" : "loc_output",
      "name" : "loc_output",
      "axis_n" : 3,
      "axis_h" : 1,
      "type" : "transpose",
      "bottom" : "loc_concat",
      "axis_w" : 2,
      "axis_k" : 0,
      "hint_fallback_from_metal" : 1,
      "debug_info" : "loc_output",
      "weights" : {

      }
    },
    {
      "bottom" : "cls_reshape1_scale0,cls_reshape1_scale1,cls_reshape1_scale2,cls_reshape1_scale3,cls_reshape1_scale4",
      "weights" : {

      },
      "hint_fallback_from_metal" : 1,
      "debug_info" : "cls_concat",
      "top" : "cls_concat",
      "type" : "concat",
      "name" : "cls_concat"
    },
    {
      "axis_seq" : 4,
      "top" : "cls_output",
      "name" : "cls_output",
      "axis_n" : 3,
      "axis_h" : 1,
      "type" : "transpose",
      "bottom" : "cls_concat",
      "axis_w" : 2,
      "axis_k" : 0,
      "hint_fallback_from_metal" : 1,
      "debug_info" : "cls_output",
      "weights" : {

      }
    },
    {
      "bottom" : "cls_output",
      "end" : 7,
      "start" : 0,
      "weights" : {

      },
      "axis" : 2,
      "debug_info" : "__tc__internal__rel_classes",
      "top" : "__tc__internal__rel_classes",
      "type" : "slice",
      "name" : "__tc__internal__rel_classes"
    },
    {
      "bottom" : "loc_output",
      "end" : 2,
      "start" : 0,
      "weights" : {

      },
      "axis" : 2,
      "debug_info" : "__tc__internal__rel_xy",
      "top" : "__tc__internal__rel_xy",
      "type" : "slice",
      "name" : "__tc__internal__rel_xy"
    },
    {
      "bottom" : "",
      "k" : 2,
      "n" : 1,
      "weights" : {

      },
      "h" : 1,
      "debug_info" : "__tc__internal__constant_xy",
      "constant_blob" : 441,
      "top" : "__tc__internal__constant_xy",
      "w" : 14661,
      "type" : "load_constant",
      "name" : "__tc__internal__constant_xy"
    },
    {
      "bottom" : "",
      "k" : 2,
      "n" : 1,
      "weights" : {

      },
      "h" : 1,
      "debug_info" : "__tc__internal__constant_wh",
      "constant_blob" : 443,
      "top" : "__tc__internal__constant_wh",
      "w" : 14661,
      "type" : "load_constant",
      "name" : "__tc__internal__constant_wh"
    },
    {
      "bottom" : "__tc__internal__constant_wh,__tc__internal__rel_xy",
      "alpha" : 1,
      "operation" : 1,
      "weights" : {

      },
      "fused_relu" : 0,
      "debug_info" : "__tc__internal__rel_xy_mul_db_wh",
      "top" : "__tc__internal__rel_xy_mul_db_wh",
      "type" : "elementwise",
      "name" : "__tc__internal__rel_xy_mul_db_wh",
      "beta" : 0
    },
    {
      "bottom" : "",
      "k" : 2,
      "n" : 1,
      "weights" : {

      },
      "h" : 1,
      "debug_info" : "__tc__internal__scale_xy",
      "constant_blob" : 445,
      "top" : "__tc__internal__scale_xy_constant_in_scale",
      "w" : 14661,
      "type" : "load_constant",
      "name" : "__tc__internal__scale_xy_constant_in_scale"
    },
    {
      "bottom" : "__tc__internal__rel_xy_mul_db_wh,__tc__internal__scale_xy_constant_in_scale",
      "alpha" : 1,
      "operation" : 1,
      "weights" : {

      },
      "fused_relu" : 0,
      "debug_info" : "__tc__internal__scale_xy",
      "top" : "__tc__internal__scale_xy",
      "type" : "elementwise",
      "name" : "__tc__internal__scale_xy",
      "beta" : 0
    },
    {
      "bottom" : "__tc__internal__constant_xy,__tc__internal__scale_xy",
      "alpha" : 1,
      "operation" : 0,
      "weights" : {

      },
      "fused_relu" : 0,
      "debug_info" : "__tc__internal__xy",
      "top" : "__tc__internal__xy",
      "type" : "elementwise",
      "name" : "__tc__internal__xy",
      "beta" : 0
    },
    {
      "bottom" : "loc_output",
      "end" : 4,
      "start" : 2,
      "weights" : {

      },
      "axis" : 2,
      "debug_info" : "__tc__internal__rel_wh",
      "top" : "__tc__internal__rel_wh",
      "type" : "slice",
      "name" : "__tc__internal__rel_wh"
    },
    {
      "bottom" : "",
      "k" : 2,
      "n" : 1,
      "weights" : {

      },
      "h" : 1,
      "debug_info" : "__tc__internal__scale_wh",
      "constant_blob" : 447,
      "top" : "__tc__internal__scale_wh_constant_in_scale",
      "w" : 14661,
      "type" : "load_constant",
      "name" : "__tc__internal__scale_wh_constant_in_scale"
    },
    {
      "bottom" : "__tc__internal__rel_wh,__tc__internal__scale_wh_constant_in_scale",
      "alpha" : 1,
      "operation" : 1,
      "weights" : {

      },
      "fused_relu" : 0,
      "debug_info" : "__tc__internal__scale_wh",
      "top" : "__tc__internal__scale_wh",
      "type" : "elementwise",
      "name" : "__tc__internal__scale_wh",
      "beta" : 0
    },
    {
      "bottom" : "__tc__internal__scale_wh",
      "alpha" : 1,
      "operation" : 27,
      "weights" : {

      },
      "fused_relu" : 0,
      "debug_info" : "__tc__internal__wh_exp",
      "top" : "__tc__internal__wh_exp",
      "type" : "elementwise",
      "name" : "__tc__internal__wh_exp",
      "beta" : 0
    },
    {
      "bottom" : "__tc__internal__constant_wh,__tc__internal__wh_exp",
      "alpha" : 1,
      "operation" : 1,
      "weights" : {

      },
      "fused_relu" : 0,
      "debug_info" : "__tc__internal__wh",
      "top" : "__tc__internal__wh",
      "type" : "elementwise",
      "name" : "__tc__internal__wh",
      "beta" : 0
    },
    {
      "weights" : {

      },
      "debug_info" : "__tc__internal__boxes_out_transposed",
      "top" : "__tc__internal__boxes_out_transposed",
      "type" : "concat",
      "name" : "__tc__internal__boxes_out_transposed",
      "bottom" : "__tc__internal__xy,__tc__internal__wh"
    },
    {
      "axis_seq" : 4,
      "top" : "__tc__internal__boxes_squeezed",
      "name" : "__tc__internal__boxes_squeezed",
      "axis_n" : 3,
      "axis_h" : 2,
      "type" : "transpose",
      "bottom" : "__tc__internal__boxes_out_transposed",
      "axis_w" : 1,
      "axis_k" : 0,
      "hint_fallback_from_metal" : 1,
      "debug_info" : "__tc__internal__boxes_squeezed",
      "weights" : {

      }
    },
    {
      "axis_seq" : 4,
      "top" : "__tc__internal__classes_squeezed",
      "name" : "__tc__internal__classes_squeezed",
      "axis_n" : 3,
      "axis_h" : 2,
      "type" : "transpose",
      "bottom" : "__tc__internal__rel_classes",
      "axis_w" : 1,
      "axis_k" : 0,
      "hint_fallback_from_metal" : 1,
      "debug_info" : "__tc__internal__classes_squeezed",
      "weights" : {

      }
    },
    {
      "weights" : {

      },
      "version" : 1,
      "axes_1" : 3,
      "type" : "squeeze",
      "axes_0" : 0,
      "attributes" : {
        "is_output" : 1
      },
      "nd_axis" : 0,
      "bottom" : "__tc__internal__classes_squeezed",
      "debug_info" : "raw_confidence",
      "hint_fallback_from_metal" : 1,
      "size_of_axes" : 2,
      "name" : "raw_confidence",
      "top" : "raw_confidence"
    },
    {
      "weights" : {

      },
      "version" : 1,
      "axes_1" : 3,
      "type" : "squeeze",
      "axes_0" : 0,
      "attributes" : {
        "is_output" : 1
      },
      "nd_axis" : 0,
      "bottom" : "__tc__internal__boxes_squeezed",
      "debug_info" : "raw_coordinates",
      "hint_fallback_from_metal" : 1,
      "size_of_axes" : 2,
      "name" : "raw_coordinates",
      "top" : "raw_coordinates"
    }
  ]
}